python/dm/itm.model (torch_old, 12024 bytes, 20 tensors)

enc1.weight f4 [16, 6]
000000 d0 a3 fc bd 2e 31 bc 3e e0 64 cc 3d d0 55 ae 3d
       -0.12335932 0.3675627 0.09980178 0.08512461
000010 8b f5 58 be e8 74 0d 3e ff 38 c2 be d4 88 98 be
       -0.21187417 0.13814127 -0.3793411 -0.29791892
000020 f8 8e 5e be 82 61 98 3e ac ce ba 3d c8 04 43 3e
       -0.21734226 0.29761893 0.09121451 0.19044793
000030 70 5c ab be b8 0c 90 3d a0 d6 bd 3d 6c ce 99 3d
       -0.33468962 0.07033676 0.09269452 0.07510075
000040 10 90 80 bc 59 17 a6 be 64 68 19 3e 12 a3 0e 3f
       -0.015693694 -0.32439688 0.14981228 0.55717576
000050 79 37 06 3f 00 08 59 3e 60 91 1f 3c e1 5f 5e be
       0.52428395 0.21194458 0.00973925 -0.21716262
000060 2e be a4 be 20 43 78 3d 2d 3a 28 be fa 09 9d 3e
       -0.32176346 0.06061089 -0.16428442 0.30671674
000070 82 52 b2 3e 34 42 3c 3e a9 b2 1a 3d 93 05 a6 3e
       0.34828573 0.1838463 0.03776804 0.32426128
000080 6a ac 8a 3c a3 c2 b3 be b8 6c 05 3d b4 87 42 3e
       0.016927917 -0.35109434 0.032574385 0.18997079
000090 50 15 c8 bb 8b dd a7 3e a8 99 b4 3e 2a 9e b0 be
       -0.0061060563 0.3278621 0.3527348 -0.3449567
0000a0 a0 75 66 3c 88 70 5c 3e 02 91 4c be 14 62 9c be
       0.01406613 0.21527302 -0.19977191 -0.30543578
0000b0 75 e2 af be b4 0b 5a 3e b8 fb b6 bd 18 5b 1b be
       -0.3435246 0.21293527 -0.0893473 -0.15171468
0000c0 57 54 84 3e 13 82 a3 bd 9c 05 e3 be 1c 49 31 3e
       0.25845596 -0.07983794 -0.44340217 0.17313045
0000d0 cc 91 64 3e d9 a2 1e bf d0 0e 53 3c 5e 02 b2 bd
       0.22321242 -0.61967236 0.01288195 -0.08691858
0000e0 50 9b f6 bd c1 21 ae be 54 a2 de bd a8 ff a6 bd
       -0.12041342 -0.34010127 -0.108708054 -0.08154231
0000f0 b8 93 7b bd 60 9f b2 bc a0 73 8e 3e f8 c7 3a bd
       -0.061420172 -0.021804512 0.2782259 -0.04560086
000100 90 72 d3 3c 22 a3 a6 3e 70 de 9c 3e f3 8b c8 bd
       0.025811464 0.32546335 0.30638456 -0.09792318
000110 ea 6b 58 be 56 a0 8b 3e 42 35 ac 3e 66 86 e6 be
       -0.21134916 0.27270764 0.33634382 -0.45024413
000120 af 27 8a 3d 32 81 02 3e 15 59 25 3e a0 14 68 3e
       0.0674585 0.12744597 0.16147263 0.22664118
000130 66 23 02 be a3 c8 40 3e b0 e7 e2 bc 20 a4 14 be
       -0.12708816 0.18826537 -0.027698368 -0.14515734
000140 4c 02 0c 3e 94 16 78 3e 08 58 71 be f8 26 46 be
       0.13672751 0.24227363 -0.23568738 -0.19350803
000150 ad 72 2f 3e 40 12 18 3f b7 f8 9f bd 4b 26 94 be
       0.17133589 0.5940285 -0.078111105 -0.28935465
000160 1c 2e d8 bd 8c 68 8c be 70 27 b0 bd d4 0e 69 3e
       -0.1055567 -0.27423513 -0.08601272 0.22759563
000170 54 cf 3a 3e 87 43 40 be 9c 48 aa 3e 20 7c 46 3e
       0.18243152 -0.1877576 0.33258522 0.19383287

enc1.bias f4 [16]
000000 c8 cc 36 3e c0 1f dd 3b 5a 19 ba 3e 50 80 d9 3d
       0.17851555 0.0067481697 0.36347467 0.10620177
000010 38 4e b0 bd b8 d1 70 bd 52 70 09 be 78 1e 2a 3e
       -0.08608669 -0.058793753 -0.13421753 0.16613185
000020 1c 56 47 3e 68 db fe 3d 40 19 ba bc 70 58 29 bd
       0.19466442 0.12444192 -0.022717118 -0.041344106
000030 84 91 ac 3e 99 d4 96 be 74 57 0f 3e 92 6f 8b 3e
       0.3370477 -0.29459074 0.13998204 0.2723356

enc2.weight f4 [16, 16]
000000 a8 d3 28 3d 1c 37 9e bd 5c 0b 2e be 00 08 67 bd
       0.041217476 -0.07725355 -0.16996521 -0.056404114
000010 24 35 51 be 78 9a fa bd 4e e2 23 3e f8 8c 05 3d
       -0.20430428 -0.12236494 0.16004297 0.03260514
000020 b6 78 65 be 2c 5a e5 3d 40 b7 22 3d 7a ee 54 be
       -0.22409329 0.111988395 0.039725542 -0.20794097
000030 3c d2 f8 bd 5a 46 05 be fc a7 85 3d c0 4b e4 3b
       -0.12149474 -0.13015118 0.06526181 0.006967038
000040 cc 17 2d be 84 2f fb bd a6 34 58 be 84 fe fd bd
       -0.16903609 -0.12264922 -0.21113834 -0.12402061
000050 82 bb 6f be 9a 45 5d 3e 38 c9 64 3e 78 6e b6 3d
       -0.23411372 0.21608582 0.22342384 0.08907789
000060 1c 04 fd bd 68 34 1c 3e e8 86 e0 bd 4c 79 30 be
       -0.123542994 0.15254366 -0.10963231 -0.17233771
000070 c0 22 f8 3d 76 31 54 be 74 22 9a 3d c6 45 65 3e
       0.12116003 -0.20721993 0.07526103 0.22389898
000080 5e db 17 be 00 64 f3 bb 44 e8 26 3e 58 0f 4f bd
       -0.14829776 -0.0074276924 0.1629954 -0.050551742
000090 b0 38 73 bd 11 88 d1 3d ae 72 52 3e f8 f4 ec bd
       -0.059380233 0.10231031 0.2055156 -0.115701616
0000a0 06 f7 15 bd 3c 27 66 3e ea 27 4a be cc b7 6f bd
       -0.036612533 0.22475904 -0.19741789 -0.05852489
0000b0 fc 3a a0 3d 80 a9 ef bd b1 a9 b8 3d 5e 9d 3c 3e
       0.078237504 -0.117022514 0.09016741 0.18419406
0000c0 e4 93 78 3e 28 15 7d bd 0c 86 60 3e ae 4c 11 be
       0.24275166 -0.061787754 0.21926135 -0.14189407
0000d0 a8 fe 1d 3e 6a 27 51 bd 14 4e 22 be ec ec f6 3d
       0.15429175 -0.05106298 -0.15850097 0.12056908
0000e0 40 e5 fc ba e0 21 cb 3c ac 85 b5 bd 9a 93 81 be
       -0.0019294396 0.024796426 -0.088633865 -0.25307924
0000f0 af 7b 9e be 82 83 3c be b8 e8 e9 3d ba 15 78 be
       -0.30953738 -0.18409541 0.11421341 -0.24227038
000100 5e 7f 49 be 5c fd 3c 3e 6c 70 ce bd 06 ea 0f 3e
       -0.19677493 0.18456024 -0.100800365 0.14054117
000110 80 46 9c bd 99 3d b7 bd 7d 6a f8 bd 80 9e a0 3c
       -0.07630634 -0.08947296 -0.12129686 0.019606829
000120 35 9b 85 bd 24 d6 56 be d0 ef 50 3d e2 78 20 be
       -0.06523744 -0.20980126 0.051009953 -0.15671113
000130 d4 fb d3 bd ec 1c e5 bd 64 11 56 be 00 39 e5 bd
       -0.10350767 -0.11187157 -0.20905071 -0.111925125
000140 e4 34 51 3e e8 a6 5a 3e 46 47 59 be 55 fe 22 3e
       0.20430332 0.21352732 -0.21218595 0.15917332
000150 52 fc 04 be 64 d7 2c 3e be 67 1d 3e dc b3 b6 bd
       -0.12986878 0.1687904 0.15371606 -0.08921024
000160 11 f9 a5 3e 5c 3f 85 bd 7c 37 ad bd a4 b1 87 3e
       0.32416585 -0.065062255 -0.084578484 0.26502717
000170 47 1a 5c bd 12 00 21 be 39 e9 01 3e 10 31 bd bd
       -0.053735998 -0.15722683 0.12686624 -0.092378736
000180 b6 f5 02 be 04 db ab bd c0 40 5d 3d e4 ea 9f be
       -0.12789044 -0.08391383 0.05401683 -0.31233895
000190 86 77 7b 3e 08 dc b0 be f2 a3 6d 3e e0 1e e1 3c
       0.24557313 -0.3454287 0.23207071 0.027480543
0001a0 3d e2 cd bd da 65 a0 be 8e 07 00 3e c0 d5 b6 3a
       -0.10052917 -0.31327707 0.12502882 0.00139492
0001b0 ec f6 c0 bd 48 85 24 3e 83 37 c4 3d d8 f7 d6 3d
       -0.094220966 0.16066468 0.095809005 0.10496491
0001c0 88 6d 31 3e 30 4e 4b be a0 09 5b 3e 2f 6b de 3d
       0.17326939 -0.19854045 0.2139039 0.108602874
0001d0 a8 47 71 3e 1f 33 a0 3d dd d1 a6 bd 90 95 a5 bc
       0.23562491 0.078222506 -0.08145497 -0.020212919
0001e0 36 1d 2e be bb f0 89 be c0 5f 9b bb 0b 3e d9 3d
       -0.1700333 -0.26941475 -0.004741639 0.10607537
0001f0 d6 da ee bd 10 ef 53 3e c2 b4 64 be 4a bb 5e 3e
       -0.116628334 0.20696664 -0.22334579 0.21751133
000200 3c 7d 24 be 5c cf c2 3d a0 e0 56 3c 2f af 4b 3e
       -0.16063398 0.09512207 0.013115078 0.19891046
000210 ac 85 17 be d2 5f 3e bd 90 3f 80 3c ba 13 28 3e
       -0.14797086 -0.0464781 0.015655309 0.16413775
000220 6a 47 f9 3d 42 8d 96 3c b4 c7 b9 bd b1 98 36 3e
       0.12171824 0.018377904 -0.090712935 0.17831685
000230 de a5 23 bd 40 a4 80 bc e1 78 85 be f8 05 2e 3e
       -0.039953105 -0.01570332 -0.26068786 0.16994464
000240 c0 02 5f be f0 28 87 3d b0 bb 93 3c 8a 9d 55 bd
       -0.21778393 0.06599605 0.018033832 -0.052152194
000250 88 74 33 3d 80 6e 95 3b 9a 60 67 be ac 4d a0 3d
       0.043812305 0.0045602918 -0.22595444 0.07827315
000260 1a 2d 85 be ef c1 98 3d 1c ef 3a be 95 40 cf bd
       -0.26010972 0.07458865 -0.18255275 -0.1011974
000270 0e 07 43 be 58 ff 4a be 20 d5 07 3e 84 28 55 3e
       -0.1904566 -0.19823968 0.13264894 0.20816237
000280 6c 86 6f 3e 00 1c 59 3c d2 11 4b 3e 30 00 1a bd
       0.23391122 0.013251305 0.19831017 -0.037597835
000290 56 db 4b 3e 2e 81 64 be f2 df 23 3e 1c 8d 30 be
       0.19907889 -0.22314903 0.16003397 -0.17241329
0002a0 d4 d5 0b be 04 5d 97 bd b0 82 28 bd 86 5d 17 be
       -0.13655788 -0.07390788 -0.04114026 -0.1478177
0002b0 80 38 0c 3e 84 24 15 3e 30 96 19 be d0 2f 0e 3d
       0.13693428 0.14564711 -0.14998698 0.034713566
0002c0 1a b8 59 3e 00 d8 1b bc bc 84 0b 3e 14 33 ac bd
       0.21261635 -0.009511948 0.13624853 -0.0840818
0002d0 e4 f7 f3 3d 48 23 14 bd 1c c7 2f be ca 98 2f 3e
       0.11912516 -0.03616646 -0.17165798 0.17148128
0002e0 34 68 1e be 34 21 c0 3d ec 99 7b be 2a 9a 12 be
       -0.15469438 0.09381333 -0.24570435 -0.14316621
0002f0 3a 36 0b 3e bc 32 3f 3e b4 c1 64 be 20 48 c5 bd
       0.13594905 0.18671697 -0.22339517 -0.096328974
000300 2c 9f dc 3d c0 93 27 3c 38 54 2f bd 42 5c 6f bd
       0.10772547 0.010228097 -0.042804927 -0.058437593
000310 18 02 41 3e 82 5e 19 be b0 58 48 3d 48 56 3d 3d
       0.18848455 -0.14977458 0.048912704 0.046224862
000320 19 9b c2 bd 9f 62 96 be 0c ca 44 3e b6 bd 29 3d
       -0.09502239 -0.29372117 0.192177 0.041440688
000330 a0 17 fa 3d 88 fd 59 3d 6e b2 a1 be 28 40 0d 3d
       0.12211537 0.053220302 -0.31581444 0.034485012
000340 78 4b 94 bd e4 4f ff bd a4 68 d4 bd 88 d1 f7 3d
       -0.07240957 -0.1246641 -0.10371521 0.12100512
000350 64 5c 7c be 00 39 63 3c 28 5e ba 3d b0 b4 5b 3d
       -0.24644619 0.01386857 0.0909999 0.053639114
000360 f6 66 11 be e4 b0 f9 3d 88 ea 24 3e d6 0d 70 be
       -0.14199433 0.12191942 0.16105092 -0.23442778
000370 66 9f 0e 3e 10 5b ff 3d 3c ea 57 be a0 d3 02 bc
       0.13927993 0.12468541 -0.21085447 -0.007985026
000380 ca 85 5d 3e 74 85 9f bd ba fe 2b be 0c a1 ed bd
       0.21633068 -0.07789126 -0.16796389 -0.11602983
000390 44 2a 5b be d3 03 e4 3d 30 fd 15 be 54 78 19 be
       -0.21402842 0.11133542 -0.14647365 -0.14987308
0003a0 36 45 38 3e a8 cc 82 39 fe d9 09 3e fb 93 2e be
       0.17995152 0.00024948013 0.13462064 -0.17048638
0003b0 d9 48 9b 3d 4e 7d 70 be e7 0c 6c 3e 5e 50 4b be
       0.07582254 -0.234853 0.23051797 -0.19854876
0003c0 4c 62 fd bd 40 2c e6 bc 7c 13 5a 3e 5c e9 0e be
       -0.12372264 -0.028097272 0.21296495 -0.13956207
0003d0 c6 2b 64 be a0 ba 8d 3c b3 52 e1 3d 88 60 c9 bd
       -0.22282323 0.017300904 0.11002102 -0.09832865
0003e0 c4 be be 3d 40 59 77 bc 48 87 01 bd 4c 26 b0 bd
       0.093137294 -0.015096962 -0.031623155 -0.086010545
0003f0 08 cb 94 3d 68 ef 7d bd 47 10 9d 3d d4 18 42 be
       0.07265288 -0.061995894 0.0766912 -0.18954784

enc2.bias f4 [16]
000000 ae 1e 62 be 00 b0 dd b9 2e e2 29 be 48 90 92 3d
       -0.22082016 -0.00042283535 -0.16590187 0.07156426
000010 fc a9 da 3d 62 0b 64 3e d4 d5 e5 bd 7c 66 2b 3e
       0.10676953 0.22269967 -0.11222425 0.16738313
000020 ce d4 1b be 24 55 25 3e 74 54 44 3e fe 90 7a be
       -0.15217897 0.1614576 0.19172841 -0.24469373
000030 fa 2d 04 be 90 eb 37 be 30 20 cf bd 58 13 43 bd
       -0.12908164 -0.17960954 -0.10113561 -0.04762587

enc3.weight f4 [16, 16]
000000 f4 7f dd 3d 00 32 88 3a b4 45 1a be fa b8 40 be
       0.10815421 0.0010390878 -0.15065652 -0.18820563
000010 d8 84 44 3d 78 5c 60 bd 82 e6 3a be 78 b0 97 bd
       0.047978252 -0.054775685 -0.18251994 -0.074067056
000020 ed d4 8b be 00 76 cd bd 3e 58 5f be 40 72 c6 3d
       -0.27310887 -0.10032272 -0.21811005 0.0968976
000030 ee 1a 58 3e 86 14 1c be 5f d7 9f 3d 54 7d 31 be
       0.21104023 -0.15242204 0.07804751 -0.17332965
000040 dc d3 68 be fc 24 06 3e ae 89 0f 3e 1a 76 7b be
       -0.22737068 0.13100046 0.14017364 -0.24556771
000050 dc 21 07 be 22 6d 31 be b6 38 0c be 58 be a3 3d
       -0.1319651 -0.17326787 -0.13693509 0.079952896
000060 68 80 22 be 34 cc b7 bd 20 3e ef bc 1e a7 74 be
       -0.15869296 -0.089744955 -0.029204428 -0.23891875
000070 80 c1 7b 3e 04 11 f0 3d 50 f9 65 3d 88 49 27 bd
       0.24585533 0.117219955 0.056145966 -0.04084161
000080 ea ad 0b be d0 79 3a be 10 1d 30 bd b8 3f df 3d
       -0.13640562 -0.1821053 -0.042996466 0.10900825
000090 0c ee 1a 3e 78 ac 1e 3d f8 37 5b bc 32 76 0e be
       0.1512987 0.038738698 -0.013380043 -0.13912275
0000a0 4b c2 94 bd 20 29 bd bc 00 74 ef 3d fe 6c 6f 3e
       -0.07263621 -0.023090899 0.11692047 0.23381421
0000b0 be 6f 0a be 0e f4 05 3e 4a 0a 0a 3d 64 9d 6a be
       -0.13519189 0.1308138 0.03370122 -0.22911602
0000c0 e0 4e 73 3c fe 98 14 3e 53 10 01 be de ef 52 3e
       0.014850348 0.14511487 -0.12603883 0.20599315
0000d0 7f 29 9b 3e 9c 0c 22 be 2a 16 66 be 08 bd 55 3e
       0.30305097 -0.15825123 -0.22469392 0.20872891
0000e0 4e 72 af bd 60 ec 32 3e 4a 4c 6c 3e 3e 75 05 3e
       -0.08566724 0.17472982 0.23075977 0.13033006
0000f0 c8 66 17 bd 0c 41 48 3e d2 48 0c 3e 05 7a cb 3d
       -0.036963254 0.19556063 0.13699654 0.09935383
000100 64 e6 f3 3d cc 0d fd bd 58 a3 49 3d 08 cf 51 be
       0.11909178 -0.12356147 0.049228042 -0.20489132
000110 54 47 1d 3e 22 7e 26 be 48 0f 25 3e ac 35 6d be
       0.15359241 -0.16259053 0.1611911 -0.23165005
000120 a0 0c 2e be 70 f5 a0 3d 12 f6 4d be 7e d1 79 be
       -0.16997004 0.078593135 -0.201134 -0.24396321
000130 a0 f0 d2 bd 10 90 08 bd 54 a1 30 be 20 93 ee bc
       -0.10299802 -0.033340514 -0.17249042 -0.029122889
000140 64 2a 03 be 42 31 40 3e 88 07 79 be cc b9 2e 3e
       -0.1280914 0.1876879 -0.24319279 0.17063063
000150 f8 83 4a 3e d6 90 36 be 02 f9 08 be 20 14 2e be
       0.19776905 -0.17828688 -0.13376239 -0.16999865
000160 80 aa 44 bb 10 ea 8c bd 4e 74 64 3e a0 19 65 be
       -0.0030008852 -0.068805814 0.22309992 -0.22373056
000170 60 30 13 be 4c 83 ce 3d 10 f1 5d 3d d0 b7 48 3e
       -0.14373922 0.10083637 0.054184973 0.19601369
000180 00 1c e8 b9 9c a8 e2 bd 97 18 e9 bd 9f 74 b2 3e
       -0.0004427135 -0.11067316 -0.11381643 0.348546
000190 f8 65 9f 3d e0 ce 26 be a4 8c b0 3d 84 4a e7 3c
       0.07783121 -0.16289854 0.08620575 0.028233774
0001a0 fa 0c 5a 3d 1a 25 00 3e 30 cd c6 bd 30 1a 53 3d
       0.05323503 0.12514153 -0.09707105 0.051538646
0001b0 fa be 31 be aa cf 0e be dc 78 5a 3d de 54 9c 3e
       -0.17358008 -0.13946405 0.053337917 0.305335
0001c0 28 24 d7 bd 60 43 b7 bd 5d 32 ec bd ec fd 03 3e
       -0.10504943 -0.08948398 -0.115330435 0.12889832
0001d0 5f 9f dc 3d 72 3e 8c be 7a 8a 2e 3e ee d0 09 be
       0.10772585 -0.27391392 0.17045012 -0.13458607
0001e0 5c c0 a3 bd 4f 65 ab 3d ac d9 23 3e b8 38 25 3d
       -0.07995674 0.083689325 0.16001004 0.040337294
0001f0 98 3e 3f bd 44 2e 8f bd d0 08 ab be b3 8a e6 3d
       -0.046690553 -0.06991246 -0.3340516 0.112569235
000200 80 be 7c 3e 4a ac 2c 3e 8e d6 00 be 00 d0 bb bb
       0.24682045 0.16862598 -0.12581846 -0.0057315826
000210 84 83 b0 3d 28 90 11 bd 6e 58 59 be 20 06 00 bd
       0.086188346 -0.03553787 -0.2122514 -0.03125584
000220 80 9c 6a be f0 2d 7e 3d f0 7a 1c 3d 74 fc d2 3d
       -0.22911263 0.06205553 0.03820318 0.10302058
000230 98 e4 32 bd e0 e1 e7 bd dc e6 4c be ac 6a 91 bd
       -0.043675035 -0.11322379 -0.20009941 -0.07100424
000240 e8 5f f8 3d 20 b1 e2 3c 08 28 66 3e 76 ba 35 be
       0.12127668 0.02767235 0.22476208 -0.1774691
000250 10 51 97 3d 74 be e6 3d 62 6f 0b be ea 70 08 be
       0.07388508 0.11266795 -0.13616708 -0.13324323
000260 47 e8 a2 3e 38 50 21 be 30 94 93 bd b8 e2 5b 3e
       0.3181784 -0.15753257 -0.07205999 0.21473205
000270 d6 f1 2b 3e 9a 56 18 3e 1a 6b 04 bd 60 e9 21 bd
       0.16791472 0.14876786 -0.032328703 -0.039529204
000280 4c a4 78 be bc b9 2d 3e 81 b3 e9 bd 65 9a 92 3e
       -0.24281424 0.16965383 -0.11411191 0.2863342
000290 d8 e8 12 bc be b9 39 3d 74 a7 de bd b0 81 25 bd
       -0.008966647 0.045343153 -0.10871783 -0.040406883
0002a0 d0 a5 b0 3d fb 65 cf bd e0 31 c5 bd 12 8b 42 3e
       0.08625376 -0.10126873 -0.096286535 0.18998364
0002b0 12 b5 98 bd 00 bd 9d 3a 6b 30 f2 3c 62 78 9e 3e
       -0.074564114 0.0012034476 0.029564103 0.3095122
0002c0 ae 5b 6e 3e 5e 7e 2e 3e d8 16 1f be d0 04 24 bd
       0.2327716 0.17040393 -0.15536058 -0.040043652
0002d0 60 d8 2b bd 86 d3 0b 3d 89 74 81 be 0e 2a 24 3e
       -0.0419544 0.03413727 -0.25284222 0.16031668
0002e0 c6 d9 03 be da d6 5f 3e 72 97 1d 3e 5e ba 0b 3e
       -0.12876043 0.21859303 0.15389803 0.13645312
0002f0 52 5f 11 be 00 48 aa 3a 3a 97 50 be a8 25 61 be
       -0.14196518 0.0012991428 -0.20370188 -0.21987021
000300 36 5c 56 be 90 fd 8d bd 10 9a 86 bd b8 f9 65 3d
       -0.20933613 -0.06933129 -0.06572354 0.056146353
000310 68 5d 5b be 10 aa f0 bd 84 ea 4b 3e 98 1b 25 3d
       -0.2142235 -0.11751187 0.1991368 0.04030952
000320 bc 3f bf 3d 48 58 14 3d 12 4c 0d 3e 42 5b 2a 3e
       0.09338328 0.036217004 0.1379855 0.16636375
000330 80 af f4 bd 74 b1 88 bd 00 aa 82 bd da 85 7d be
       -0.119475365 -0.066744715 -0.06380081 -0.24758092
000340 c0 24 42 3c 8c 70 81 3d 9c b9 8a be aa b9 42 be
       0.011849582 0.06320295 -0.27094734 -0.19016138
000350 c2 71 29 be e2 57 2a bd ec 4a 65 be a4 1b ae bc
       -0.16547301 -0.041587718 -0.22391862 -0.021253414
000360 60 9e ad be 0a 51 57 bd 2e 6f 6f be b8 3e ef 3d
       -0.33909893 -0.05256752 -0.23382255 0.116818845
000370 68 9e d3 3d 6c c8 f6 3d 00 ad 9f 3d cc 41 b4 3c
       0.10332948 0.12049946 0.07796669 0.02200403
000380 e0 1b d9 3c 20 05 22 3d 90 a3 dd bc 1e 2c 27 3e
       0.02650255 0.03955567 -0.027055532 0.16325423
000390 80 b3 3c bd 7f 1c b4 3d c0 5e 8e bd da 8c 4f be
       -0.046069622 0.08794498 -0.06951666 -0.20268574
0003a0 71 79 6b 3e 68 cd 77 bd a8 bd b7 bd 14 90 79 3e
       0.22995545 -0.060498625 -0.08971721 0.24371368
0003b0 80 72 68 3c a0 9f 07 3d b0 5b 31 be 72 f1 61 be
       0.014187455 0.033111215 -0.17320132 -0.2206476
0003c0 5c 21 0e 3e 80 2b a5 bb 2f ff b7 3d 32 ec 2a 3e
       0.13879913 -0.005040586 0.08984219 0.16691664
0003d0 06 58 67 3e 10 34 3c be 16 c9 2e 3e f8 1f 3a 3d
       0.22592172 -0.18379235 0.17068896 0.045440644
0003e0 a8 c0 16 3d a2 55 90 3e 2c 8a 18 be 7c 19 cb bd
       0.036804825 0.28190333 -0.14896458 -0.0991697
0003f0 ce 20 17 3d 06 c4 67 3e 50 92 04 3e 5a 8c 63 3e
       0.03689652 0.22633371 0.12946439 0.22221509

enc3.bias f4 [16]
000000 58 e9 4f 3d 70 9e 6f 3e 00 8c 01 bd c0 35 d0 bc
       0.050759643 0.23400283 -0.031627655 -0.025416255
000010 40 05 15 3e fa 4e 68 be a0 d4 06 bd fc c9 0b 3e
       0.14552784 -0.22686377 -0.03291762 0.1365127
000020 bc 2a ad bd 28 3d 63 3e 92 90 7c 3e 4c 2a dc bd
       -0.084554166 0.22191298 0.24664524 -0.10750255
000030 6c 89 ca 3d a6 6e 0a 3e 10 72 36 3e f0 6f 4a bd
       0.098894924 0.13518772 0.17816949 -0.04942316

enc4.weight f4 [16, 16]
000000 13 75 ab 3d e0 0c 36 3d 02 b1 84 be 9c 23 54 3e
       0.083719395 0.044445872 -0.25916296 0.20716709
000010 40 df 4d bd 2c 95 97 3d 42 1e 7a be 10 8e 24 3d
       -0.050261736 0.07401499 -0.24425605 0.040174544
000020 a4 fe 29 3e 40 f7 c1 bd cc 0a c4 3c b8 6b 6e be
       0.16601044 -0.09470987 0.02393093 -0.23283279
000030 b0 c1 d5 bc 00 dc d8 ba a4 fe f9 bd 90 be 4d be
       -0.026093334 -0.0016545057 -0.12206772 -0.20092225
000040 e0 74 7f 3e 48 f6 5f bd fe ba 24 3e 68 37 11 be
       0.24946928 -0.05467823 0.16086957 -0.14181292
000050 88 63 0c 3e a2 78 28 3e 1e b0 7f be 0a ca 73 3e
       0.13709843 0.16452268 -0.24969527 0.2380754
000060 40 9a ed 3c 9d 4b 80 be 88 2c 6e 3d c2 f8 0b be
       0.029004216 -0.25057688 0.058147937 -0.13669112
000070 d0 eb 64 bd e5 e6 a1 3e 40 52 2b bd 00 a2 11 3e
       -0.05588895 0.3162147 -0.041826487 0.14221954
000080 20 ab a8 bc 18 59 51 be ee bb 56 3e 16 ce 0a be
       -0.020589411 -0.20444143 0.20970127 -0.13555178
000090 66 c8 6c be 28 50 e0 3d ca a5 03 be 9c 67 40 be
       -0.23123321 0.109527886 -0.12856212 -0.18789524
0000a0 88 2c 1b 3d 30 3f f1 bd b6 be 09 be b0 65 14 3d
       0.037884265 -0.1177963 -0.13451657 0.03622979
0000b0 7c 83 e5 bd 4e b0 79 be 2c 96 87 bd c2 ec 29 3e
       -0.11206719 -0.24383661 -0.0662044 0.16594222
0000c0 b2 eb 37 be 20 a9 1b 3c 5a 78 40 be 68 50 82 bd
       -0.17961004 0.009500772 -0.1879591 -0.063629925
0000d0 e0 d7 3c be 8a af 07 be d0 e4 ce bd c0 66 8a bb
       -0.18441725 -0.13250557 -0.10102236 -0.0042236745
0000e0 b0 88 2b be c8 78 fa bd f4 6d 3a be 68 e1 51 be
       -0.16751361 -0.122300684 -0.18206006 -0.20496142
0000f0 3a 76 04 be 28 20 e3 3d 90 42 b2 3c 14 5e 3a be
       -0.12935725 0.11090118 0.021760255 -0.1819995
000100 50 8a f4 bc f4 1c 4d 3e f6 a6 6e be 4f 0f a2 be
       -0.029851109 0.20030576 -0.23305878 -0.31652305
000110 76 21 68 be 80 57 15 bb 3a 21 15 be 90 f8 9f bb
       -0.22669014 -0.002278775 -0.14563456 -0.004881926
000120 c8 62 49 3e ae d4 79 be 17 b4 e3 3d 9c 5b e1 bd
       0.19666588 -0.24397537 0.11118334 -0.11003801
000130 2c e6 dc 3d 18 24 61 3d 80 ab 74 bb b9 02 80 be
       0.10786089 0.054966062 -0.0037333667 -0.25002077
000140 04 5f 30 3e a0 5c 77 3c e0 5a d5 3b 4a fa 88 be
       0.17223746 0.015097767 0.0065110773 -0.26753455
000150 04 d5 83 3d 86 43 6d be 02 53 1d be 54 3d d8 bd
       0.06437114 -0.2317029 -0.15363696 -0.105585724
000160 48 00 9e 3d 09 5b 05 3e 55 3b 90 be e6 23 78 bd
       0.077148974 0.13023008 -0.28170267 -0.06058111
000170 c8 50 ce 3d 40 d3 8f 3d 3d 25 63 be d7 23 a0 3d
       0.100740016 0.070227146 -0.22182174 0.07819336
000180 f4 40 a9 3d b8 66 e8 3d af 13 8e be cc 55 a2 bd
       0.08264342 0.11347717 -0.27749392 -0.07926521
000190 3a 7b 78 be 58 96 09 bd 1c 4b 10 be da 78 19 bd
       -0.24265757 -0.033590645 -0.14091152 -0.03746877
0001a0 c0 da 68 3d e4 34 bc bd 16 67 58 be 3c 3b d7 3d
       0.05684924 -0.091897756 -0.21133074 0.10509345
0001b0 a8 b1 c9 3d 01 54 a2 bd dc 6b fb bd 12 1a 46 bd
       0.09848338 -0.07926179 -0.12276432 -0.048364706
0001c0 ba e1 29 be 40 ff e9 bd e0 85 17 3c 98 54 fc bd
       -0.16590014 -0.11425638 0.009248227 -0.123208225
0001d0 f0 40 c1 3c d8 df ac 3d 6c fd 4d be 88 0b 19 bd
       0.023590535 0.08441132 -0.20116204 -0.037364513
0001e0 ac db 0d 3e 93 d0 dd bd b8 14 97 be b9 46 d6 bd
       0.1385333 -0.10830798 -0.29507995 -0.10462708
0001f0 b0 e7 93 3c 20 d8 9b 3d e0 77 08 be 28 61 a9 bd
       0.018054813 0.07609582 -0.13326979 -0.08270484
000200 bb 31 b1 3d 38 ba 01 3d ee b5 08 3c 5c 25 fd 3c
       0.086520635 0.031671733 0.008344157 0.030901603
000210 60 00 5d 3d aa 60 21 be 36 37 90 be 5c 75 11 3e
       0.053955436 -0.1575953 -0.28167123 0.14204925
000220 a6 c4 03 3e 10 d4 54 3d e1 d5 88 be 15 71 b9 3d
       0.12867984 0.05196005 -0.26725677 0.09054772
000230 3c 7c be 3d 02 c5 02 be 13 86 1c be 95 07 d5 bd
       0.093010396 -0.12770465 -0.1528552 -0.10401837
000240 60 4d 23 3e 98 f8 22 3d 72 f8 5a 3e 92 09 26 be
       0.15947485 0.03978786 0.21383837 -0.16214588
000250 9c e8 05 be 78 ed 1d 3e fc 11 b1 3c a2 95 4e be
       -0.13077015 0.15422618 0.02161502 -0.20174268
000260 fc 48 a7 bd f5 b7 a8 be 38 70 02 3e 10 2e 55 be
       -0.081682175 -0.32952848 0.1273812 -0.20818353
000270 24 56 79 be 20 e5 cd 3c f8 44 81 bd d9 75 c7 bd
       -0.24349266 0.02513367 -0.06311983 -0.097392745
000280 56 2b 0b 3e 7c 54 ca bd 75 bb 1b be 0d c0 9f be
       0.1359075 -0.09879395 -0.15208228 -0.3120121
000290 00 d5 53 3b 8a 8c 64 be e8 06 f6 bd 60 8f 0f be
       0.0032323003 -0.22319236 -0.12013036 -0.14019537
0002a0 30 34 8a bd c0 fc b7 3a ae ae b1 bd 52 ab 3b 3e
       -0.06748235 0.0014037117 -0.08675896 0.18327072
0002b0 3c 63 71 be ba 65 79 be 94 f8 32 3d ab 83 8c 3d
       -0.23573011 -0.24355212 0.043694094 0.06861051
0002c0 20 14 fd bd 68 54 af bd 64 56 b7 bd 28 19 38 3e
       -0.12357354 -0.08561021 -0.089520246 0.17978346
0002d0 1e c4 5a 3e 4a 6e 6f be 10 56 fe 3c 41 ee fc 3d
       0.21363875 -0.23381916 0.031046897 0.12350131
0002e0 76 4d 26 be 4c f8 84 be 7e 86 45 3e 48 2b 55 3d
       -0.16240487 -0.25970685 0.19289586 0.05204323
0002f0 20 5b 72 3d f4 40 e6 bd 84 94 1b 3e 42 d1 aa 3d
       0.059168935 -0.112428576 0.15193373 0.08340694
000300 98 90 bb bd d0 91 5b be c6 ee 2f be bc 6f 22 3e
       -0.091584384 -0.21442342 -0.17180929 0.15862936
000310 b2 1a 57 be 14 c3 d1 3d 00 2a 26 bd 70 24 01 be
       -0.21006277 0.10242286 -0.040567398 -0.12611556
000320 8c bf b3 bd ac d2 9a 3c 80 ee 8c be fd f9 f9 bd
       -0.08776769 0.018899284 -0.2752571 -0.122058846
000330 2c 11 70 3e be ed 43 3e 24 ca ec bd b0 07 aa bd
       0.2344405 0.1913366 -0.11561993 -0.083022475
000340 94 21 ff bd 40 e4 7c 3c 5a e4 ce 3d e8 76 eb bd
       -0.124575764 0.015435278 0.10102148 -0.11497289
000350 08 f0 3c 3e 10 fc 2c be 78 ea 3e be 28 ee 30 3d
       0.1845094 -0.16893029 -0.1864413 0.043195873
000360 38 8d 35 3e 24 9e f0 3c 72 91 4f be 28 8d 34 3d
       0.17729652 0.029372282 -0.20270327 0.04407993
000370 04 b6 1b 3e 80 e0 66 bc 29 43 d1 3a 8c 8a f8 3d
       0.15206152 -0.014091611 0.001596545 0.12135801
000380 60 20 16 3d 20 d4 23 be 28 55 a9 be 22 20 4c be
       0.03665197 -0.15998888 -0.33072782 -0.19934133
000390 00 9f 5d bd 38 3e 93 3d 3c 0e b2 bd 21 f2 8e bd
       -0.054106712 0.07189602 -0.08694121 -0.06979776
0003a0 3c b5 9c bd 60 6f 5e 3d 54 5c 4b be de 26 79 3d
       -0.07651755 0.054305434 -0.19859439 0.060828082
0003b0 e0 32 57 3e 0d 53 be bd 0e 83 2e be 04 d0 7d bd
       0.21015501 -0.092931844 -0.17042181 -0.061965957
0003c0 1c 1b 37 be d6 ee 60 be 36 ce 6a be 4e 90 78 3e
       -0.17881435 -0.21966109 -0.22930226 0.24273798
0003d0 b8 65 38 3d ac 37 f0 3d 40 06 8e 3b 66 54 6c 3e
       0.04501888 0.117293686 0.004334241 0.2307907
0003e0 c0 da 77 bd 6a b5 69 be 1c cc c3 bc d0 9d e6 bc
       -0.06051135 -0.2282311 -0.023901038 -0.028151423
0003f0 c0 19 d0 bd b0 d7 2b 3e c4 97 f7 3d 98 57 cb 3d
       -0.101611614 0.16781497 0.12089494 0.099288166

enc4.bias f4 [16]
000000 7e 92 08 be 9e be 52 3e 3c 14 ae 3d 1e ab 73 3e
       -0.13337132 0.20580527 0.08499953 0.23795745
000010 92 09 7e be e8 d2 0b bd 68 0b aa bd 9c 51 68 3e
       -0.24808338 -0.034136683 -0.08302957 0.22687382
000020 e0 84 a9 bd 18 f5 21 3e 26 89 60 3e f2 bd 1e 3e
       -0.08277297 0.15816152 0.21927318 0.15502146
000030 4e e9 7c be b0 36 5b 3d f0 83 7f 3e a0 e2 c5 bc
       -0.24698374 0.05351895 0.24952674 -0.024155915

enc5.weight f4 [16, 16]
000000 3e 2f 0d be 48 84 0d bc 40 e1 1e 3e 4b 3c ee 3d
       -0.13787553 -0.008637495 0.15515614 0.11632594
000010 a2 73 31 be 48 69 b9 3d c0 11 ab 3c 96 f5 18 3d
       -0.17329267 0.09053284 0.020882487 0.037343584
000020 62 1d 9c be 0e 75 46 3e 80 d5 77 be ba 47 8f be
       -0.30491167 0.1938059 -0.24202538 -0.2798441
000030 1c 04 02 3e 74 96 00 be 60 70 da 3c d8 5c ac bd
       0.1269688 -0.12557393 0.026664913 -0.08416146
000040 00 fb 3d 3c 09 de a3 be 84 4e 13 be 64 bb 46 be
       0.011595488 -0.32005337 -0.1438542 -0.19407421
000050 d8 ef 2a be 25 c7 61 be b0 d8 06 bd be 42 6f be
       -0.16693056 -0.22048624 -0.032921493 -0.23365304
000060 0a 82 ae bd d1 d2 a2 bd 0c 4c 17 be 57 2f 89 3d
       -0.08520897 -0.07950366 -0.14775103 0.066984825
000070 f0 53 cf 3c 01 5f 8a be 64 e3 27 be b0 f1 3a be
       0.02530858 -0.27025607 -0.16395336 -0.18256259
000080 50 82 cf bd 56 04 a3 be 12 e8 4b be 10 26 8d 3d
       -0.10132277 -0.31839246 -0.19912747 0.068920255
000090 42 19 1e bd 26 b4 48 be f0 bb 3a be 8a 22 10 be
       -0.038598306 -0.19599971 -0.18235755 -0.14075676
0000a0 a0 68 4e bd c0 51 15 3e 70 8f 8f 3d 80 00 48 bc
       -0.050392747 0.14581966 0.070097804 -0.01220715
0000b0 78 1c 5b 3e 51 21 4d be 72 e8 67 be a0 e2 c9 bc
       0.21397579 -0.2003224 -0.22647265 -0.024644196
0000c0 a0 bc b5 3c ce 38 17 3d 10 18 73 be 58 2b 23 3e
       0.02218467 0.036919408 -0.23739648 0.15934503
0000d0 4c a2 a1 3d 4c ee 71 be f0 1c 8a 3c 56 54 55 3d
       0.07892284 -0.2362606 0.016859502 0.052082382
0000e0 c4 c2 28 be 4a c9 2a be 62 01 0e be 0a dd 61 bd
       -0.16480547 -0.16678348 -0.13867715 -0.05514244
0000f0 fc bf 91 bd 3c 44 a7 3d 26 26 66 be 00 c1 28 bd
       -0.07116696 0.081673115 -0.2247549 -0.041199684
000100 f0 19 d2 bc 9c a8 6c be 90 42 c1 3c f2 4f 08 be
       -0.025647134 -0.23111194 0.02359131 -0.13311747
000110 30 df b6 3d ae e6 23 be f6 f0 6b 3e 34 8e 7b be
       0.089292884 -0.16005966 0.23041138 -0.24565965
000120 ea 9b 59 be 70 44 d9 3c 98 76 52 bd 40 a2 ce bb
       -0.21250883 0.026521891 -0.05138263 -0.006305963
000130 10 25 fd 3d 36 e0 24 be c8 7e 16 bd c4 d7 1d 3e
       0.12360585 -0.16101155 -0.036742 0.1541434
000140 60 b2 38 3c 6c 41 3d 3e 04 9a 8d bd 88 02 91 3d
       0.011272997 0.18481988 -0.06914142 0.07080561
000150 60 88 0b bc ca 1b 38 be 70 ce 58 be 28 47 c6 3d
       -0.008516401 -0.1797935 -0.211725 0.09681541
000160 88 79 7e 3c 80 0d 44 3c 67 74 9f be 38 e4 72 be
       0.015531905 0.011966109 -0.31143495 -0.23719871
000170 d8 c6 9c be 6a 2d 05 bd c0 8a e2 bb fe ab 58 be
       -0.30620456 -0.032514013 -0.006913513 -0.2115936
000180 ff 54 d8 3d 5e a8 12 be 10 48 ca 3d 28 b0 3a 3e
       0.10563087 -0.1432204 0.09877026 0.18231261
000190 3c a2 59 3e 00 6a 9f be 28 7a 7d be 90 86 7d 3e
       0.21253294 -0.3113556 -0.2475363 0.24758363
0001a0 64 39 fd bc 00 9f 1e bb 88 bb 5c be 00 c0 84 b8
       -0.030911155 -0.0024203658 -0.21555912 -6.330013e-05
0001b0 e8 7c 45 be 0c b7 46 be 58 ad 80 3d 08 c3 05 3d
       -0.19285929 -0.19405764 0.06283063 0.0326567
0001c0 1e 52 3c be 24 a5 35 be e0 2f aa 3c 58 71 6e be
       -0.183907 -0.17738777 0.020774782 -0.23285425
0001d0 5c 76 96 bd d8 a8 83 be b8 7f 32 3c 71 82 88 be
       -0.07346794 -0.25714755 0.010894708 -0.2666202
0001e0 8e 67 4f bd 96 cd 46 3e 14 5d 08 bd 61 14 9a be
       -0.050635867 0.19414362 -0.03329189 -0.30093673
0001f0 ee 01 38 be 52 b4 7c bd f0 bc 3e bd 4b ad 6d be
       -0.17969486 -0.061695404 -0.046566904 -0.23210637
000200 dc ae b5 bd ba 34 3e bd be 82 69 be 69 b1 9e bd
       -0.088712424 -0.046437003 -0.2280378 -0.07748682
000210 ad b0 ae bd f2 4e 7b 3d 69 c1 89 bd 99 81 ef bd
       -0.08529792 0.061354585 -0.06726343 -0.11694641
000220 fa 6c d1 3c 5a 7e 65 3e 16 b5 e4 be 82 5d 98 be
       0.02556466 0.2241148 -0.44669408 -0.2975884
000230 de 24 22 be 70 55 c3 3d dc b4 b7 3c 78 df a3 be
       -0.15834376 0.0953778 0.022425108 -0.3200643
000240 60 4b 45 3c 9a 1d 13 3d 0c b2 2a be d6 52 15 be
       0.012041897 0.035916902 -0.16669482 -0.1458238
000250 30 96 c8 bd ba 56 77 bd c0 9a 68 bd d6 b1 19 3d
       -0.09794271 -0.060385443 -0.056788206 0.037523113
000260 88 52 0d be 12 33 0d 3e 13 64 92 3d 50 e9 db 3b
       -0.13801014 0.13789013 0.07147994 0.0067111626
000270 21 cb b7 bd a0 d3 3c 3d 6f 5c 3a 3d 48 e2 6b 3e
       -0.08974291 0.04610026 0.045498308 0.23035538
000280 78 25 00 be 2d 46 29 be 6c 13 3a 3e e8 b4 84 be
       -0.12514293 -0.16530676 0.18171471 -0.2591927
000290 b2 f6 9b be ff 81 93 be 38 b3 37 3c f5 f4 d3 bd
       -0.3046165 -0.28810117 0.011212163 -0.10349456
0002a0 25 96 95 3c 70 fa 42 3d d2 a2 8c bd b8 77 48 be
       0.018260071 0.047602117 -0.06866993 -0.19576919
0002b0 66 e6 00 be b6 3b 02 be 72 69 2f bd f3 d8 a9 be
       -0.1258789 -0.1271809 -0.04282517 -0.33173332
0002c0 ed d5 df bd 0a 8d 17 be 50 3c 41 3d 88 e3 b7 bd
       -0.10929475 -0.14799896 0.04717666 -0.08978945
0002d0 dc b8 e5 3d c3 ce 56 be fc 8c ac bc 4a 31 38 3e
       0.112169 -0.20977311 -0.02106332 0.17987552
0002e0 26 7d 02 3e 2e 09 04 3e 7f 6e 6b 3e 48 82 ff bd
       0.12743053 0.12894127 0.2299137 -0.12476021
0002f0 94 03 c3 3c 13 70 5a 3e 19 8c d0 3d 54 4e c9 bd
       0.023805417 0.21331815 0.101829715 -0.09829393
000300 94 d2 75 be fa f7 04 be 82 0e 7d be 90 ec 84 3c
       -0.2400611 -0.1298522 -0.24712566 0.016226083
000310 94 28 14 3e 68 a3 72 be 45 ea 92 3d d1 56 98 be
       0.14468604 -0.23695147 0.071735896 -0.29753736
000320 27 e5 f7 3d 3e 6a 5f 3e f0 71 4a 3c c4 07 19 be
       0.12104254 0.21817872 0.012356266 -0.14944369
000330 70 d7 e0 3b 68 53 63 be e5 80 7e 3e a0 43 97 3e
       0.0068616197 -0.22199786 0.24853857 0.2954378
000340 a4 a0 ca 3d f0 95 25 3e 90 db ef 3d e2 d5 1f be
       0.09893921 0.16170478 0.117118 -0.15608934
000350 40 88 a0 bd 48 a4 58 3d 30 e2 50 bd 1b ed 75 3e
       -0.078384876 0.052891046 -0.05099696 0.2401623
000360 84 1c c5 bb 20 f2 3e 3e 63 f2 97 3d be 10 47 be
       -0.006015362 0.18647051 0.074192785 -0.1943998
000370 8a 9b 8b 3d e6 74 18 3e 94 17 0b be 10 ff c5 bc
       0.06816776 0.14888343 -0.13583213 -0.024169475
000380 30 35 11 bd 02 52 01 3e a8 a6 c1 bd fc c2 77 3e
       -0.035451114 0.1262894 -0.09455615 0.24195474
000390 f4 43 7f 3e 82 a5 11 3e c6 eb c9 bd 04 04 49 be
       0.24928266 0.14223292 -0.09859423 -0.19630438
0003a0 02 9d 27 be 00 d2 d6 bc 26 cf 98 bd c6 ed 36 3d
       -0.16368487 -0.026223183 -0.074613854 0.044660352
0003b0 cc 2b ef 3c d4 10 87 be c8 1f 59 3e e0 fd ec bd
       0.029195689 -0.26380026 0.2120353 -0.1157186
0003c0 d8 60 63 3e a7 78 ff 3d 68 4f db bd e0 ee ac bc
       0.22204912 0.124741845 -0.10708505 -0.021109998
0003d0 2a a8 50 bd 52 d1 ae be 7a 3e 03 be ff a3 85 3d
       -0.050941624 -0.34144074 -0.12816802 0.065254204
0003e0 20 54 cb bc 98 09 5c 3d ac 8a 97 be 00 a5 ca bc
       -0.024820387 0.053720087 -0.29597986 -0.024736881
0003f0 e6 87 14 be 29 5b b8 bd 00 c9 47 be 1e f8 7b be
       -0.14504966 -0.090017624 -0.19510269 -0.24606368

enc5.bias f4 [16]
000000 80 6a 24 3c 80 f9 c5 bd dc 66 54 be 60 55 10 3d
       0.010035157 -0.09666729 -0.20742363 0.03523767
000010 78 b8 60 3d 28 7e b9 bd 46 f7 09 3e 94 e8 f2 3d
       0.054863423 -0.090572655 0.13473234 0.11860767
000020 2e 54 0c 3e 90 12 d2 bc da 29 64 be 74 af 9e 3d
       0.13703987 -0.025643617 -0.2228159 0.07748309
000030 5e 4b 7f be f0 a5 ac bd 32 5e 79 be 50 d7 d6 bd
       -0.24931094 -0.084300876 -0.24352339 -0.10490286

feat.weight f4 [16, 16]
000000 2e 5a b6 3d af 44 aa be 01 b5 94 be 3e be b3 3b
       0.08903919 -0.33255526 -0.29044345 0.005485325
000010 60 08 1f bc e0 49 d5 3c fd f5 c6 3d a4 7e e4 bd
       -0.009706587 0.026036203 0.09714887 -0.11156967
000020 94 b5 1c 3e 06 6a 4d 3d 2e 0b c9 3d d4 91 a9 3e
       0.15303642 0.05014994 0.098165855 0.3311907
000030 66 72 13 be b2 ef 77 3e 04 23 a6 be 87 17 10 be
       -0.14399108 0.2421253 -0.3244859 -0.14071475
000040 60 50 57 bb 3c c6 47 bc 8e b7 6b be 73 67 62 3d
       -0.0032854304 -0.012193259 -0.2301924 0.055274438
000050 b0 11 08 bd 1f 8c 64 3d 94 e6 ab bd 38 4e 59 3e
       -0.033219993 0.055797692 -0.08393589 0.21221244
000060 9b b2 54 3e 47 05 34 be 65 ed 73 3e df 38 7b be
       0.20771258 -0.17580138 0.23821028 -0.24533413
000070 b4 02 4c be c2 2b 29 be 9b 47 ec bc 4e 84 7c be
       -0.19922906 -0.16520599 -0.028842738 -0.24659845
000080 2c 56 d5 3d b6 3f 8c be 53 26 e4 bd f4 fd f5 bd
       0.104168266 -0.27392358 -0.11140122 -0.12011328
000090 9a b5 23 be 20 10 45 bc 73 80 90 be d8 35 cb 3e
       -0.15987244 -0.01202777 -0.28223 0.39689517
0000a0 3a cd 44 3d 31 4e 24 be 13 31 68 3e d3 1b 8b 3e
       0.04804728 -0.16045453 0.2267497 0.27169666
0000b0 6c 7a 51 3e e0 20 69 3c a3 fb c4 3d c8 c2 2c 3e
       0.20456856 0.014229029 0.096183084 0.16871178
0000c0 c3 4e 9e bd 1b bc 7a be 9a dd eb 3c aa 15 15 bd
       -0.07729866 -0.24485819 0.028792191 -0.036397614
0000d0 c0 8a 5b be 62 87 44 be a0 b4 f2 3d ac bd da bc
       -0.21439648 -0.1919227 0.11850858 -0.02670177
0000e0 fe 52 8e 3d a5 00 49 3e 38 1c 2b bd 8d c1 13 3e
       0.06949423 0.19629152 -0.04177496 0.14429303
0000f0 e8 e3 32 3c 84 43 bf 3e 6e d6 9e 3c 6c c3 31 3e
       0.010918595 0.37356198 0.019389357 0.17359704
000100 70 8f 7a be 4c 90 2d be 78 0f e4 be 61 92 a2 be
       -0.2446878 -0.16949576 -0.44543052 -0.31752303
000110 50 a9 30 3e 5b 7b 24 be 06 26 7a bd b6 95 ac 3d
       0.17252088 -0.16062681 -0.06107142 0.084269926
000120 e6 09 30 be d3 16 ef bd c4 99 b8 3d 51 a6 c2 3d
       -0.17191276 -0.11674275 0.090137035 0.095043786
000130 be d7 67 bd a8 d8 f5 bc e0 9a fe bc b1 cb 74 be
       -0.056602232 -0.030010536 -0.03107971 -0.23905827
000140 f8 02 36 3c d1 19 77 3d f9 a5 c5 bd 7a ab d4 3d
       0.011109106 0.060327355 -0.096507974 0.10384269
000150 f6 f0 43 be 28 7e 9e bd 7a bd 70 bd 64 97 ad 3d
       -0.19134888 -0.07738906 -0.05877445 0.08476141
000160 c4 46 a7 bd ad d6 03 be 20 34 9f 3b 89 fd 48 3e
       -0.08167794 -0.12874861 0.0048585087 0.19627966
000170 7a 59 f7 bd 14 08 0d 3e b5 db 93 bd 1e eb 93 bd
       -0.12077613 0.13772613 -0.0721964 -0.072225794
000180 4e 25 00 be b6 42 b5 bd 50 a2 c4 3d 7e 14 6b 3d
       -0.1251423 -0.08850615 0.09601271 0.05739259
000190 48 ea 09 bd 84 b6 d6 3d b8 c3 78 be 2e 94 12 be
       -0.033670694 0.10484031 -0.24293411 -0.14314339
0001a0 e9 14 6c 3e fc 35 b9 bd 50 8e 0a 3e f5 e0 4a 3e
       0.23054852 -0.090435 0.1353085 0.19812377
0001b0 a0 8d 97 be 0a 45 4f 3e ee ce 8d 3d e4 3a 35 3c
       -0.2960024 0.2024118 0.06924234 0.011061404
0001c0 9e ff a5 bd f2 db 6f 3e 9b fd 45 bc 0d f0 72 bc
       -0.08105396 0.23423746 -0.01208439 -0.01482774
0001d0 d0 0d 78 be a7 57 10 3e d8 c4 91 be cd fb bf 3e
       -0.24224019 0.14095937 -0.28470492 0.37496796
0001e0 bf 41 5d 3e 76 9f 3a 3e e2 42 46 3e a1 fc bd bd
       0.21607111 0.18224892 0.19361451 -0.09276701
0001f0 eb 2d fe 3d d2 b7 22 be ce 0a 59 3e ca 22 78 3e
       0.12411102 -0.15890434 0.21195528 0.24232021
000200 7b 45 46 bd 9a a5 6d bd 9b f0 bc bd b6 cd f2 bd
       -0.048406105 -0.058019258 -0.09225579 -0.118556425
000210 ea fc 0a be ea 1f 77 be 04 88 b0 bc 30 c7 d0 bd
       -0.13573042 -0.24133268 -0.021549232 -0.10194242
000220 1c c3 19 3e f4 03 38 3e 55 0a ce bd 05 f1 9c bd
       0.15015835 0.17970258 -0.100605644 -0.07663158
000230 d0 94 b2 3c ee d7 7d 3e 18 29 2c 3e f8 a1 0d bc
       0.021799475 0.24789402 0.16812551 -0.008644573
000240 14 29 aa 3c 4c 2d c7 3c c3 55 fa bd 70 39 a7 bc
       0.02077154 0.024313591 -0.12223389 -0.02041313
000250 80 ad e6 bb f6 9a 7f be 20 54 19 be 30 82 fd 3c
       -0.007039726 -0.24961457 -0.14973497 0.030945867
000260 94 ee 48 bc a3 b9 52 be 3a e7 25 be 4c 5c 5b bc
       -0.012263913 -0.20578627 -0.16201487 -0.0133887045
000270 ec c1 00 be 01 2f 21 be 29 23 63 bc a1 e0 c8 bc
       -0.12573975 -0.15740587 -0.013863363 -0.024521174
000280 38 9d 80 bd ea 49 8d be d9 76 58 be aa c1 0a be
       -0.06279987 -0.27595454 -0.21139087 -0.1355044
000290 56 0b 02 be 58 4b 78 3e 10 18 a2 bb 6c 87 a8 bd
       -0.12699637 0.24247491 -0.004946716 -0.08228955
0002a0 10 8e 81 be 14 26 18 3d 3a 53 eb 3d fb de b3 3d
       -0.25303698 0.03714569 0.114904836 0.087827645
0002b0 54 bc 2b 3e a2 14 51 3e 53 83 a3 3d 26 40 17 3d
       0.1677106 0.20418027 0.079840325 0.03692641
0002c0 d3 54 57 3d a2 ac 5f 3e f8 08 c2 3d 28 33 08 3e
       0.05257113 0.21843198 0.09474367 0.13300765
0002d0 48 a2 4b 3d a0 18 de 3b 1e 6b 7f be b7 8e fe bd
       0.04971531 0.006777838 -0.24943206 -0.124295644
0002e0 09 e4 53 3e 8b ec d1 3e 99 1d 74 be 89 5c 2e be
       0.20692457 0.4100078 -0.23839416 -0.17027487
0002f0 6c 7d a5 3e be e3 93 be 92 e3 81 3e 2a 69 5d 3e
       0.32322252 -0.2888469 0.25368935 0.21622148
000300 0a 2c 97 be d5 96 a2 3d 12 78 8a bd 34 56 48 3d
       -0.29525787 0.07938925 -0.06761183 0.048910335
000310 58 5c 0c 3d f7 98 74 3e 24 b9 7c be 78 7a d2 3d
       0.034267753 0.23886476 -0.2468 0.10277265
000320 03 91 b9 3d 6a 69 aa be 79 d9 5c be 91 30 8b 3e
       0.09060862 -0.3328355 -0.21567334 0.2718549
000330 8f 7b 68 bd ee d0 df 3b d9 12 d9 3c 63 af 61 be
       -0.05675846 0.0068303263 0.026498245 -0.22039561
000340 0c 31 94 3d 9a 55 93 bd 60 a7 fb bd d9 38 91 be
       0.072359174 -0.071940616 -0.122877836 -0.28363684
000350 b4 93 fb bd 44 de 4a 3e cc 94 14 be f0 b3 64 3d
       -0.122840315 0.1981135 -0.14509887 0.055835664
000360 f7 62 22 3e 55 dc a2 bc b8 2c 40 be 5a cb 21 be
       0.15858065 -0.019880453 -0.18767059 -0.15800229
000370 41 81 3f 3e 03 c2 78 3e 0b 2c 83 3d 18 fd b2 3d
       0.1870165 0.2429276 0.06404885 0.0873968
000380 e8 2d d8 3c 3e b0 94 bd a7 ad 87 3d d2 2e 1a 3e
       0.026389077 -0.07260178 0.066249184 0.15056923
000390 3e e1 62 be 30 af 1a be 91 93 db 3d 36 2a 61 3e
       -0.22156236 -0.15105891 0.107215054 0.21988758
0003a0 c8 7e b8 3d 6c 37 25 3e dd d4 54 bc 93 f7 d3 3d
       0.090085566 0.16134423 -0.012990204 0.103499554
0003b0 25 33 38 be 62 8f f2 3d 6a 74 60 3d 5b 44 10 be
       -0.1798826 0.11843754 0.05479852 -0.14088576
0003c0 d4 bf f3 3c 46 b2 1c bc a5 24 3f be f1 0a 60 be
       0.029754557 -0.009563988 -0.18666323 -0.21879174
0003d0 38 bd f1 bd 9a 55 5e be 53 95 e7 3d 3c 2c 4c bd
       -0.11803669 -0.21712342 0.11307778 -0.049846873
0003e0 24 9f 8c 3e 4e 00 54 3e 89 04 43 bd 1e f7 4e 3e
       0.27465165 0.20703241 -0.047611747 0.20211455
0003f0 50 12 b5 3e c8 4f 9e 3e 35 c6 89 3d 46 42 87 3d
       0.35365534 0.30920243 0.06727258 0.066044375

feat.bias f4 [16]
000000 b0 02 3a 3e 98 59 8e 3d 58 dd 83 bd 8a 2f 03 be
       0.18165088 0.069506824 -0.06438702 -0.12811103
000010 46 b6 7b be 00 f9 98 3c 4e 8e 2b 3e 74 cf ac bd
       -0.2458125 0.01867342 0.16753504 -0.08438006
000020 0a 20 09 be 24 6e bc 3d a8 45 c3 bd b8 de 12 be
       -0.13391128 0.09200695 -0.0953477 -0.14342773
000030 aa 62 2d be 72 82 35 3e 68 a7 60 3e 10 1e f9 3d
       -0.16932169 0.17725542 0.2193886 0.12163937

dec1.weight f4 [16, 16]
000000 b4 64 01 bd 50 68 58 be 84 5c 1a be 4b 2f 85 3e
       -0.03159018 -0.21133542 -0.15074354 0.26012644
000010 e1 62 d3 bd 93 0e 9b 3e 78 97 55 3c df a4 45 3e
       -0.10321594 0.30284557 0.013036601 0.19301175
000020 ce 49 82 3d af a3 82 3d be ae 39 3e e0 af d2 bc
       0.063617334 0.063788764 0.18133065 -0.02571863
000030 07 bb 89 3e e4 05 38 3e 5d 7e 3e 3e 3f 09 19 be
       0.26900503 0.17970997 0.18602891 -0.14944933
000040 30 23 51 be 7c b9 a8 3d 4a 2d b9 bd 4c 8e 9e 3e
       -0.20423579 0.08238503 -0.09041841 0.3096794
000050 bd e2 a8 3e 30 ba b6 3d 8c 5f df bd a3 29 d8 3d
       0.32985488 0.08922231 -0.10906896 0.105548166
000060 8b 26 50 bd be 18 2e bd ee ce 90 3e ba 00 e4 bd
       -0.050818007 -0.042504065 0.28282875 -0.11132951
000070 7b d9 e3 bd d3 a1 9e 3e e7 82 74 be 2b 1b 5c bd
       -0.111254655 0.30982837 -0.2387806 -0.053736847
000080 b1 90 59 3e 31 e8 f9 bd f6 ff ac bc c9 3a 5f 3e
       0.21246602 -0.1220249 -0.021118145 0.21799769
000090 d6 e4 b6 bc a9 4a 1f be 51 78 59 be 73 c0 99 be
       -0.022325914 -0.15555824 -0.21237303 -0.3002964
0000a0 e5 93 3b 3e 5a 1b 42 be 43 b5 61 be 12 a6 6f be
       0.18318136 -0.18955746 -0.22041802 -0.23403195
0000b0 68 f7 12 bc b4 6a 33 bb c8 ed 4e 3d ab e3 9c bd
       -0.008970119 -0.0027376832 0.050519735 -0.07660612
0000c0 f3 13 c6 3e f7 3a 85 be e2 6c 1a 3e e0 fe 52 bd
       0.38687095 -0.2602155 0.15080598 -0.0515126
0000d0 3b 27 02 3e 81 4e 68 bd 59 ac 36 3e 40 99 19 be
       0.12710278 -0.056715492 0.17839183 -0.14999866
0000e0 ca 57 10 be ef 8e 89 3e 92 6d 17 bc b4 7f 02 bf
       -0.14095989 0.26866862 -0.009242432 -0.5097611
0000f0 e7 c4 7d 3e 49 77 77 3e 3d c3 78 3e f0 08 a6 3c
       0.24782144 0.24166597 0.24293227 0.020267934
000100 56 ed 06 be 0c 89 c0 bc 69 1b e9 bc 3e 8b 5e be
       -0.13176474 -0.023502849 -0.028455453 -0.21732804
000110 3e c8 9d 3e 56 b3 a0 3d 86 3d 32 be 0d 2e 62 bb
       0.30816835 0.078467056 -0.17406282 -0.0034512312
000120 7a 37 64 be a0 ca 02 3d ec 5f e3 bd 51 4e 8b bd
       -0.22286788 0.03193152 -0.1110228 -0.06802047
000130 49 44 cc bd 89 cd 31 3e 8f f4 46 be 72 67 74 bd
       -0.09973962 0.17363562 -0.19429229 -0.059668966
000140 a1 c0 b7 be ad ec 7b 3d 0f 66 e9 3c 84 e2 51 be
       -0.35889152 0.06150501 0.028491048 -0.20496565
000150 52 fc 2a 3e 0e c7 17 3e c6 af 1c 3e 7d 7d 97 3e
       0.16697815 0.14822027 0.15301427 0.29587927
000160 3a 72 5a 3d 14 0a 8d 3d cd 6c 9d bc bf 03 8b 3d
       0.05333159 0.06886688 -0.01921692 0.06787824
000170 fe 1c 31 3e a0 16 e4 3c 93 81 61 3e bd e7 fe bd
       0.17296216 0.02784282 0.22022085 -0.12446544
000180 77 90 de 3d ae b9 40 be 8c b6 8b be 9c 8e 97 3d
       0.10867398 -0.18820831 -0.2728771 0.074002475
000190 80 b8 db 3d 1c a8 93 3d b6 25 5d 3a 1f b5 ba be
       0.1072855 0.07209799 0.00084361003 -0.3646631
0001a0 bc 78 24 3e 90 5a 83 bc eb a9 61 3d 6d a9 b6 be
       0.16061682 -0.016034395 0.055093687 -0.35676137
0001b0 5f 28 aa bd 75 33 36 3e fa 1b 87 bd f3 47 d5 3d
       -0.083084814 0.17793067 -0.06597133 0.10414114
0001c0 65 f0 10 3e 7e 13 00 3e 12 42 01 be b0 72 4e 3e
       0.14154203 0.12507436 -0.1262286 0.20160937
0001d0 7e 0e 23 bc 6e 56 27 3d aa 31 61 bd 42 49 56 bd
       -0.009952186 0.04085391 -0.054979004 -0.052315958
0001e0 a3 1c a1 3c 0f d3 ee 3d 3c 43 c6 3c fa 19 34 be
       0.019666975 0.1166135 0.024201982 -0.17588034
0001f0 27 78 81 3d da 91 f1 3d 6c 33 65 3e 42 e4 98 bd
       0.06321745 0.11795397 0.22382897 -0.07465412
000200 06 dd 8b be f8 dc cc 3c ef e7 ca bd 7a 24 92 bc
       -0.27317065 0.02500771 -0.09907519 -0.017839659
000210 52 68 9b 3d b4 79 6f 3e c3 02 10 3e 95 ff 4d 3e
       0.07588257 0.2338627 0.14063554 0.20117028
000220 12 5a 89 bd b7 2b f2 3d cd 90 96 bd 63 42 db bd
       -0.06706633 0.11824744 -0.07351837 -0.10706022
000230 80 e7 4d bc f8 39 10 3e e3 d5 ee 3d 6b 0f 38 3e
       -0.012567401 0.14084613 0.116618894 0.17974631
000240 f2 60 f6 3e 5d d0 6d be fe 05 90 3d 6d 79 03 3e
       0.48120838 -0.23224016 0.07032393 0.12839289
000250 ca a1 78 bd bd 11 52 3d eb 40 94 3e e0 09 b1 be
       -0.06070117 0.051286448 0.28955778 -0.34577847
000260 fc 00 a6 bd e5 f0 3b 3e 89 82 10 be 42 a0 90 be
       -0.081056565 0.18353613 -0.14112295 -0.28247267
000270 c4 43 62 3e 24 52 e5 bd 56 6e 94 3e 65 7c f1 bd
       0.22096163 -0.11197308 0.2899043 -0.117913045
000280 8a 80 69 3d cc f3 a9 bd 22 8b f2 3d 33 1c 43 3e
       0.05700735 -0.08298454 0.11842944 0.19053726
000290 d5 1a 5e 3e 8c 68 44 3d 81 fa 20 3d 43 73 b3 be
       0.21689923 0.047951266 0.0393014 -0.35048875
0002a0 7d d5 ba 3e 1a 9f cd bd 24 d1 8b 3d fe 02 9e bd
       0.36491004 -0.10040112 0.06827 -0.077154145
0002b0 29 72 1d 3f 4c 02 dc 3d 88 4f b6 be 63 f8 98 3e
       0.6150232 0.107426256 -0.35607553 0.29877004
0002c0 ec 62 c6 bc d6 29 94 3d d5 a1 42 be 42 51 a6 be
       -0.024217092 0.07234542 -0.19007047 -0.3248387
0002d0 75 55 09 be 4a 82 25 bc ba 4c d6 3b e1 88 e7 3d
       -0.13411506 -0.010101864 0.0065399082 0.113054045
0002e0 42 34 b4 be 7e e0 3c 3d bd e1 a6 be f8 01 7d 3e
       -0.3519612 0.04611253 -0.325941 0.24707782
0002f0 27 32 6e be 83 bb 0a bd be 9b e8 3e 16 66 ec bd
       -0.23261319 -0.03387023 0.45431322 -0.11542909
000300 d7 f9 d5 bb b0 12 6a bb 2a 9c c7 3e cc 59 d4 3e
       -0.0065300274 -0.0035716705 0.3898633 0.4147476
000310 5a f8 d6 bd 6a 1c 16 3e 50 88 1b 3c a4 10 65 be
       -0.10496588 0.14659277 0.009492949 -0.22369629
000320 cf d5 f2 3c d0 e7 07 be ba 69 ad 3e 93 b6 22 be
       0.029642968 -0.13272023 0.33869725 -0.15889959
000330 a2 89 9a 3e 53 9a a6 3e 51 d8 0a be 10 3d d2 3e
       0.3018313 0.32539615 -0.1355908 0.41062212
000340 6a 7f 69 3e 4f cb 17 3e e5 69 3a 3e 50 89 64 3d
       0.22802511 0.1482365 0.18204458 0.055795014
000350 d1 fd f9 bd 27 86 3a 3d a6 1a 1c be f4 ed d7 be
       -0.12206615 0.045538094 -0.1524454 -0.4217373
000360 31 32 f5 bd 11 3c 34 3e df 7d 70 be 25 83 75 be
       -0.11972464 0.17601039 -0.23485516 -0.23975809
000370 a0 c1 7f be 55 4d 52 3e ab ad 34 be f1 45 67 3c
       -0.24976206 0.20537312 -0.17644374 0.014115796
000380 50 1e 9e 3e f6 9f 06 bd b3 74 1c be 4c 92 01 be
       0.30882502 -0.032867394 -0.15278892 -0.12653464
000390 2d 5b 5c bd 88 48 a1 3d 96 67 5b bd c4 99 9e bd
       -0.05379789 0.07875162 -0.053565584 -0.07744172
0003a0 6d 6d 0e 3e 17 61 74 3e e8 29 ab 3d 5a 0c 56 3d
       0.1390893 0.23865162 0.08357602 0.052257873
0003b0 bc be 10 3e fa e1 98 bd fc 05 31 3e ab 12 51 3c
       0.1413526 -0.074649766 0.17287439 0.012760798
0003c0 12 12 85 bd c4 45 0f 3d ba ac 85 bd a7 7b 4d bd
       -0.06497587 0.034978643 -0.065270856 -0.050166752
0003d0 00 b5 c0 bb 50 4d d9 be 4f f7 cf 3e d0 3e 67 3d
       -0.005880952 -0.42441797 0.4061837 0.056456387
0003e0 cd ac 68 bd 58 c7 9b 3e fc 85 a5 be 05 12 19 3e
       -0.05680542 0.30425525 -0.32328784 0.1494828
0003f0 6e d3 9b be 99 2f 97 bd ba 1a db 3d bf b6 bc be
       -0.30434746 -0.073821254 0.10698457 -0.36858174

dec1.bias f4 [16]
000000 3d a5 dc be 55 62 c8 40 6e b7 a5 bc d6 f6 ae 40
       -0.43094817 6.2620034 -0.020229068 5.4676313
000010 cc d7 a9 40 e9 ee e5 40 28 40 b6 40 b8 94 1b be
       5.3075924 7.185414 5.6953316 -0.1519345
000020 a0 c7 cf be 19 8a dd 40 3a 1e 7a be 5f 58 e6 40
       -0.4058199 6.9231076 -0.24425593 7.1982875
000030 6a 71 ee 40 af 07 fd bd 68 7e 80 bd d7 a5 e5 40
       7.4513445 -0.12354981 -0.0627411 7.176494
