python/mb/itm.model (torch_old, 3065 bytes, 10 tensors)

enc1.weight f4 [8, 6]
00000000: 6527 b83e 5510 033f 1403 953d 9ada d0bd
00000010: ba04 8b3e 8712 c5be f642 613e 86c4 523e
00000020: a6cb 823e b322 f33e 8f7c 0abe 00a8 e73d
00000030: f7a3 39be 5139 8cbe 6398 b3be 87d7 44bd
00000040: 81e0 043f 88d2 ad3d 6b8b 27be 9ed9 e6bd
00000050: 9bb1 4cbe 3a24 043e b4f3 80be f433 2a3e
00000060: 85fe e93c 402e 853e 3fcf cabe 4433 a83e
00000070: 7f5c e2bd 607b 5d3c 261c c33d 306a d83e
00000080: 7818 8cbe a0ad 6b3e 5ed8 6ebe 10cd 803d
00000090: 1204 0bbd d115 323e f4e0 7a3e da75 c1bd
000000a0: 7b4b 30be 3715 6dbe 3f71 423e f7d8 92bd
000000b0: c0e1 45bd 43da 2dbc f233 9c3e 5322 a2be
0.35967556 0.51196796 0.07275978 -0.10197945 0.27152044 -0.38490698 0.219982 0.2058278
0.25545996 0.4748741 -0.13524078 0.1131134 -0.18128954 -0.2738748 -0.350772 -0.048057105
0.51905066 0.08487421 -0.16361777 -0.11271976 -0.19989626 0.12904444 -0.2518593 0.16621381
0.028563747 0.26011848 -0.3961124 0.32851613 -0.110527985 0.013518184 0.09526853 0.42268515
-0.27362418 0.23015451 -0.23324725 0.062891126 -0.03393943 0.17391135 0.24499875 -0.094463065
-0.17216294 -0.23152624 0.18988512 -0.07170289 -0.048310995 -0.01061112 0.3050838 -0.31666812

enc1.bias f4 [8]
00000000: cabe 91bc 034a bbbe f6c6 7c3d 5de5 8ebc
00000010: e89d 263e 1a79 dabe 797e bebe 4831 8fbe
-0.01779117 -0.36579904 0.06171318 -0.017443353 0.16271174 -0.42670518 -0.37205866 -0.27967286

enc2.weight f4 [8, 8]
00000000: 29db a7bd da3b 18be 7c47 e03c 1954 d8be
00000010: f8de cd3d 99bc 95be 50cf 00be 458c 8bbd
00000020: e06c 11be 90f1 c6bd e4e4 f3bc e4e0 6fbe
00000030: 8292 6e3e 682a bebd 35ff b2be 00b4 febc
00000040: 20a4 6ebe f398 aabe 52b9 76be d44e 7dbe
00000050: a804 98bd 4260 88be 28b4 2bbd 10f0 09bd
00000060: b6c2 4fbe 3581 adbe c136 04be e309 243e
00000070: 6739 3f3e b8d3 a0bd ea75 4abe 7e29 67bc
00000080: eb37 06bf 495c ad3e d900 2e3e a37b 99bc
00000090: d83d 62bd dbbd 9c3d ef5a 923e 483f a23e
000000a0: fd33 41bd afff 21bd a4b6 4e3e 6184 54be
000000b0: 18fa bbbd edcd 88be 54fa a1be 4cfc 293d
000000c0: e59e aebe b3e9 0dbe 2a77 103e 8e59 0cbf
000000d0: 78ca ad3d 13ce 253e 1458 95bd d091 603d
000000e0: e258 53bd 211d b6bd c0bc 1c3e fb77 d8be
000000f0: f40c 89bd abac c5bd 14ac 65bc 693d 24be
-0.08196098 -0.14866582 0.027377836 -0.4225166 0.100522935 -0.2924545 -0.12579083 -0.06813864
-0.14201689 -0.09714043 -0.02977223 -0.23425633 0.23298076 -0.09285432 -0.34960333 -0.03109169
-0.23304796 -0.33319816 -0.24094132 -0.24737102 -0.07422763 -0.2663594 -0.041919857 -0.033676207
-0.2028912 -0.3388764 -0.12911512 0.16019396 0.18674241 -0.07852882 -0.19771543 -0.014109014
-0.52429074 0.3385947 0.16992511 -0.018735712 -0.05523476 0.076533996 0.28585002 0.31688905
-0.04716872 -0.03955048 0.2018686 -0.20753624 -0.09178561 -0.2671961 -0.31636298 0.041500375
-0.34105602 -0.1385868 0.14107957 -0.5482415 0.084858835 0.16191892 -0.0729219 0.054826558
-0.051598437 -0.08892275 0.15306377 -0.42279038 -0.06691924 -0.096520744 -0.014018077 -0.16039051

enc2.bias f4 [8]
00000000: 7eb9 5cbe ba02 4e3e 7e2d ddbd 3a81 01bf
00000010: 826c 94be 4b0d bfbd 8b90 0ebe 57b9 0abf
-0.21555135 0.20118228 -0.107996926 -0.5058781 -0.28989035 -0.09328707 -0.13922326 -0.54189056

enc3.weight f4 [8, 8]
00000000: 3831 1ebe e9be 9cbd 7784 02be 54aa 963e
00000010: 3c6b 29bb dec6 81bd 9052 30be 360d 1dbe
00000020: dc26 313e d843 d2bd 5be4 36be 8d12 67be
00000030: 1334 d1be 9faa 16be 30df d03b 7481 babd
00000040: 0e72 4ebd c7db adbd 2d60 adbe 52a1 163e
00000050: 5b96 d3bd 3e8d f1bc 0bbb cf3d f6f3 acbd
00000060: 26e8 103e 0e22 283e 59fc 9a3e 40b2 ed3c
00000070: d688 b4be 48d4 62bc a070 db3d 3d3f 83be
00000080: c9f3 61be a5a4 b03e da89 363e 3056 e33b
00000090: 8851 dfbe b754 923d f053 423d 9c54 ccbd
000000a0: ac9f 423e badb 38be 1471 9abc e618 c93d
000000b0: 3864 02bc 7e73 a0be bdc4 0f3e 81ac 8a3d
000000c0: e058 153c 5b34 6abe deb8 673e 06aa 6abe
000000d0: 156f bebe 7fc9 d13d 90bf bd3d 27a2 86be
000000e0: 374a 3fbe 80dd 213c 309f 45bd 48ff 123e
000000f0: 3c6a 23be cc41 34be e030 15be f592 85be
-0.15448463 -0.07653601 -0.12745844 0.29426825 -0.002585127 -0.06336759 -0.17218995 -0.15337071
0.1729998 -0.102668464 -0.17860548 -0.2256567 -0.40860042 -0.14713524 0.0063742623 -0.091067225
-0.05040174 -0.08489185 -0.3386244 0.14709976 -0.103314124 -0.029486295 0.101430975 -0.08444969
0.14151058 0.16419241 0.3027065 0.02901566 -0.35260648 -0.013844557 0.10714841 -0.25634184
-0.22065653 0.34500614 0.17826024 0.0069377646 -0.4361689 0.07145064 0.04744333 -0.099770755
0.19006222 -0.18052569 -0.018852748 0.09819202 -0.007958464 -0.31338114 0.14039893 0.06771184
0.009115428 -0.22871535 0.22629115 -0.22916421 -0.37194124 0.102435105 0.09265053 -0.26295587
-0.18680654 0.00987947 -0.048247516 0.14355195 -0.15958494 -0.17603225 -0.14569426 -0.26088682

enc3.bias f4 [8]
00000000: 7e0e c8be 3810 b1bb 1642 8bbe f883 26be
00000010: 4aa8 e7be 0eb6 13bf 5b32 9dbe 1daf aebd
-0.39073557 -0.0054035448 -0.27198857 -0.1626128 -0.45245582 -0.5769967 -0.3070248 -0.08529494

feat.weight f4 [16, 8]
00000000: 2b81 3a3e de1c 763e bf28 c1bc 02cf 933e
00000010: 4ee0 ac3d 8bbf 3f3e 9cd8 433e dc9e 6e3e
00000020: 3c80 033e 0d53 53bd 755d eebb 65c5 9dbd
00000030: a061 063c 14b8 18be c667 4abe 52d4 7fbe
00000040: 2b2f a03c 99fe dfbe 7ff7 37be ae09 6c3e
00000050: 606d bb3c 18dd 7cbc 42f3 2dbe 0ed8 be3e
00000060: 6093 b4bc 920d 88bd 8bc1 acbe 3c43 14be
00000070: 1dac 0ebe b33d e4bc 062f 5cbe d5c5 ebbd
00000080: 0c47 3d3e 1e4a 0ebe a624 c73d 6620 44be
00000090: 7abe c73e c052 9abe 6ed8 a63e 6547 f1bd
000000a0: fd18 9a3d c09b ac3e f00c 143e 7ac0 62be
000000b0: aeef c2bd 6158 a53e 1965 a1be e879 43be
000000c0: a278 adbe f481 83be 9524 e13d 313f 8a3d
000000d0: 26bc 3d3e c68f 1f3e a854 953e f677 22be
000000e0: 9f10 7dbe 373d ac3d b837 24bd 8c5f 093e
000000f0: 81b2 b93d 9ff4 8d3e aabe 2abe b66e d6be
00000100: 969a 353c 2089 3f3e 24ca b13d cccc ca3c
00000110: ea86 363e 295a 36bd 4600 203e de19 21be
00000120: ce23 1bbe 3a89 613e 6abd 3bbe 2d05 b6be
00000130: 7199 393e d997 86bd b0af 9c3b 8a05 3bbe
00000140: 944d b5be 413f 303e 157d 3fbe d1f7 b1be
00000150: e0fc d6be 92c9 b5bd 78f5 463e c0e5 c7bd
00000160: e590 d9bd 5b81 d33e b38d 28be d62e d23e
00000170: 3cbf 38be 4873 80bd f8cf 023e c5f6 aebd
00000180: 6625 0d3e b2f7 4dbe ef69 81be 9f43 9fbe
00000190: b022 cebd da6b 3a3d c2da ac3e 720d cdbe
000001a0: ef36 40bd bca9 d9bd 1577 b7be 7f64 9a3d
000001b0: b60c 4e3e 61cf 86be f048 cf3c 9799 cb3d
000001c0: 1433 a1bd d21a 00be d79b 023e 87f9 f53d
000001d0: 2743 acbe c414 efbd 897e b5be b6a0 1bbe
000001e0: a5a1 08be 119a 77be 5673 813e 416c 913d
000001f0: 08f9 cabd aa93 48be 142c 293e 5076 823b
0.18213336 0.2403445 -0.023579 0.28868872 0.0844122 0.18725412 0.19125599 0.23302788
0.12841886 -0.051592875 -0.0072743245 -0.07703666 0.008201987 -0.1491397 -0.19766149 -0.24983338
0.019553741 -0.4374893 -0.17965506 0.23050568 0.022879303 -0.015433572 -0.16987327 0.37274212
-0.02204293 -0.06643213 -0.33741412 -0.14478773 -0.13932844 -0.027861452 -0.21502313 -0.11512343
0.18484133 -0.13895461 0.09723787 -0.19152984 0.3901251 -0.30141258 0.32586998 -0.117811956
0.075242974 0.33712578 0.1445806 -0.22143736 -0.095183715 0.3229399 -0.31522444 -0.19089472
-0.33881098 -0.25685084 0.109933056 0.06750334 0.18528804 0.15582189 0.2916615 -0.15866074
-0.24713372 0.08410113 -0.0400922 0.13415354 0.0906725 0.27725694 -0.16674295 -0.4188134
0.011084219 0.18704653 0.086811334 0.024755858 0.17824903 -0.044519577 0.15625104 -0.15732524
-0.15150377 0.22025004 -0.18333974 -0.35550824 0.1812494 -0.065719314 0.004781686 -0.18263832
-0.3541075 0.1721163 -0.18700059 -0.3475938 -0.41989803 -0.08876337 0.19429576 -0.09760618
-0.106233396 0.41309628 -0.16460304 0.41051358 -0.180417 -0.06271988 0.12774646 -0.08543161
0.13783798 -0.2011402 -0.25276133 -0.31106278 -0.1006521 0.04551301 0.3376065 -0.4004932
-0.04692739 -0.106280774 -0.3583304 0.07538699 0.20122036 -0.26330093 0.025303334 0.09941404
-0.078710705 -0.12510231 0.1275476 0.12010484 -0.33644983 -0.116738826 -0.354481 -0.15198025
-0.13342912 -0.24179865 0.25283307 0.07100726 -0.0991078 -0.1958758 0.1652072 0.003981389

feat.bias f4 [16]
00000000: ab2e ae3e 86ba 263e 888b 44be 02a3 5c3e
00000010: 64e3 91be d085 8f3d 1005 6b3d c882 4ebd
00000020: 30df 7f3d 0e03 9dbe e205 aebe baa4 273e
00000030: 95e9 aa3e 27aa b3be 30cd d83c b8c5 51bd
0.3401998 0.1628209 -0.19193852 0.21546558 -0.28493798 0.070079446 0.057377875 -0.05041769
0.062468708 -0.30666393 -0.33988863 0.16371432 0.33381334 -0.35090753 0.026465029 -0.05121395

head.weight f4 [3, 16]
00000000: 9391 463e 3356 083e 4243 493d 71f7 a4bd
00000010: e839 89bc 96f8 71bd 7a15 983d 9778 dabd
00000020: cce0 9b3d 6850 dd3d 5735 c0bb d47c 443e
00000030: daef 97bc 5d55 0dbe da4c 783d 21fb d13b
00000040: 8edf 3ebd 7df5 113e 0f99 2abe 2da2 8cbe
00000050: 75aa 66be 3fe9 dfbd 22f6 633e 01bc a4bd
00000060: 4f07 ab3e 9999 4abe bf01 26be 718f fd3a
00000070: 82f1 d73d 5fa3 ad3c 906c c5bd fddf 59bd
00000080: 2023 983d 1100 d8bd cb3e 4cbd 2516 29be
00000090: 2bbe 92be 9fb6 153e 5e9f 66bc bbeb c63d
000000a0: 6a20 413e 48f8 663e 86ee dcbc f2b2 ec3d
000000b0: a755 8d3d 10d7 a43d 0970 c33d 14d5 d6bd
0.1939147 0.13314132 0.049136408 -0.08055008 -0.016751245 -0.05907496 0.07425971 -0.10667532
0.07611236 0.10806352 -0.0058657336 0.19188243 -0.018546987 -0.13802095 0.060620166 0.0064081107
-0.046599917 0.14253803 -0.1665995 -0.2746748 -0.22525962 -0.1093316 0.22261861 -0.080436714
0.33404014 -0.19785155 -0.16211604 0.0019345117 0.10544111 0.021196065 -0.09639847 -0.053192127
0.074285746 -0.10546888 -0.04986457 -0.16512354 -0.28660712 0.14620446 -0.014076082 0.09712931
0.18860021 0.2255565 -0.026969206 0.115575686 0.069011025 0.080488324 0.095428534 -0.1048986

head.bias f4 [3]
00000000: 1edb db3d f0ea 883d f9c0 2e3e
0.10735153 0.06685436 0.170658
