python/mb/tm.model (torch_old, 7328 bytes, 25 tensors)

action_emb.weight f4 [3, 16]
-0.6777577 0.61576915 0.26130766 -0.41831848 0.22210804 0.5287791 0.09196598 -0.62389374
-0.04830802 2.0882924 0.20711638 -0.7330055 -1.1255906 0.20176393 0.41389805 1.9486276
0.49312723 0.2999715 -0.8287937 -0.3615795 0.06546123 0.7675289 0.54255635 -0.013628792
-0.7360142 0.69812983 2.213943 1.3860486 0.48034632 -2.1403203 1.6316156 -0.9382477
1.5361462 0.5619505 -0.7929202 0.26234484 1.3128676 -0.35170192 0.9161692 -0.4937707
2.3717194 -1.2694966 -1.32538 0.69293237 -0.44804904 0.95840055 0.28852814 1.0203736
00000000: 8781 2dbf 0ca3 1d3f 1eca 853e d72d d6be
00000010: 4a70 633e 115e 073f a958 bc3d 80b7 1fbf
00000020: a1de 45bd 95a6 0540 5116 543e 40a6 3bbf
00000030: 5a13 90bf 349b 4e3e 72ea d33e a16c f93f
00000040: 2c7b fc3e dd95 993e d32b 54bf f320 b9be
00000050: 8a10 863d c67c 443f f9e4 0a3f 4c4b 5fbc
00000060: 6d6b 3cbf a3b8 323f 3eb1 0d40 0a6a b13f
00000070: f4ef f53e 02fb 08c0 c8d8 d03f 0031 70bf
00000080: 70a0 c43f fddb 0f3f d1fc 4abf 1052 863e
00000090: 0c0c a83f 4612 b4be 118a 6a3f 83cf fcbe
000000a0: 40ca 1740 dd7e a2bf 0da6 a9bf 0464 313f
000000b0: af66 e5be bd59 753f f6b9 933e 9a9b 823f

enc1.weight f4 [8, 6]
-0.15707791 -0.5658273 -0.37838343 0.250114 -0.1579543 -0.06658724 0.1599971 0.19114852
-0.33132052 0.017114215 0.28804067 -0.29350868 0.27184924 -0.20124425 0.041202784 -0.27749243
0.05239559 0.32209247 -0.094790116 -0.37740803 0.4055186 0.2718747 -0.104609415 0.14407122
-0.03012184 0.41027838 -0.11064288 -0.14241937 0.44169968 0.09362757 0.28489113 -0.036550727
0.35264605 -0.048930243 -0.31285143 0.12735772 0.16645989 0.620164 0.4051857 0.21713522
0.38025278 -0.30355057 -0.24373548 -0.048693683 0.24838233 0.27747947 0.12639031 -0.045555234
00000000: 08d9 20be 0fda 10bf 79bb c1be f10e 803e
00000010: c6be 21be e45e 88bd 48d6 233e 70bc 433e
00000020: d8a2 a9be 1c33 8c3c 117a 933e c546 96be
00000030: d32f 8b3e f912 4ebe 40c4 283d 7d13 8ebe
00000040: c29c 563d 4ee9 a43e 5221 c2bd a03b c1be
00000050: 22a0 cf3e 2933 8b3e 763d d6bd 6887 133e
00000060: 14c2 f6bc 0210 d23e bc98 e2bd 62d6 11be
00000070: 7626 e23e d0bf bf3d 40dd 913e 37b6 15bd
00000080: 068e b43e 146b 48bd 102e a0be 106a 023e
00000090: 7674 2a3e 11c3 1e3f 8074 cf3e b258 5e3e
000000a0: 7eb0 c23e fb6a 9bbe cb95 79be 0773 47bd
000000b0: f057 7e3e ca11 8e3e 766c 013e 2098 3abd

enc1.bias f4 [8]
0.5299328 -0.15403014 -0.31997287 0.37038532 0.41523427 0.050989334 0.2506858 -0.19052626
00000000: ada9 073f 14ba 1dbe 7cd3 a3be 25a3 bd3e
00000010: 9699 d43e 31da 503d e459 803e 5119 43be

enc2.weight f4 [8, 8]
0.0696311 0.11356666 -0.287422 -0.11915718 0.38331857 0.33879235 0.4470096 0.22850312
0.15347096 0.42801756 -0.1550582 -0.07933235 0.06705029 0.41072467 0.46110097 0.4259304
0.39042193 -0.24155357 0.028221069 0.41114932 -0.11632928 0.30558378 0.150089 -0.05199561
0.21460944 0.29465878 0.15720531 0.27861094 0.5394659 -0.19702348 -0.042863153 -0.11163062
0.46347043 0.21019492 0.053389505 0.33099464 0.17010877 0.0985948 -0.15378687 -0.06694759
-0.33375332 0.257413 -0.025377313 -0.15907098 -0.07406129 -0.30882367 0.36762294 -0.03068613
0.03531826 0.5096317 -0.15713748 -0.083141856 0.24841015 -0.14865965 0.35731512 0.4426479
-0.19426794 -0.027421158 0.034050435 -0.21853372 0.43254402 -0.011072792 0.23164786 0.12969154
00000000: c09a 8e3d a395 e83d fa28 93be ae08 f4bd
00000010: 5542 c43e 3176 ad3e 71de e43e b9fc 693e
00000020: 7e27 1d3e 1e25 db3e 94c7 1ebe 0079 a2bd
00000030: aa51 893d 814a d23e 6d15 ec3e 8d13 da3e
00000040: 62e5 c73e d259 77be df2f e73c 2a82 d23e
00000050: 0c3e eebd 7a75 9c3e eeb0 193e 59f9 54bd
00000060: 94c2 5b3e 84dd 963e 6efa 203e 18a6 8e3e
00000070: 701a 0a3f 86c0 49be 4691 2fbd 989e e4bd
00000080: ff4b ed3e 563d 573e f4ae 5a3d 2178 a93e
00000090: fe30 2e3e 12ec c93d 4e7a 1dbe d11b 89bd
000000a0: b7e1 aabe a3cb 833e 15e4 cfbc 81e3 22be
000000b0: 72ad 97bd 231e 9ebe 1339 bc3e 7b61 fbbc
000000c0: e1a9 103d 3977 023f a6e8 20be 4746 aabd
000000d0: 3b5f 7e3e 3c3a 18be 02f2 b63e bfa2 e23e
000000e0: 2dee 46be 56a2 e0bc 7878 0b3d 4ec7 5fbe
000000f0: 6976 dd3e a86a 35bc 1935 6d3e dccd 043e

enc2.bias f4 [8]
0.17393248 0.0055251163 0.124012575 0.023686552 0.10564642 0.49901813 -0.02988282 0.33448794
00000000: 5b1b 323e 090c b53b 4efa fd3d 4d0a c23c
00000010: 265d d83d 4e7f ff3e d1cc f4bc 0142 ab3e

enc3.weight f4 [8, 8]
-0.13641727 -0.08733737 -0.34242085 -0.3069946 -0.09187087 0.17151374 0.12063858 0.14671813
-0.14660524 0.37822846 0.52608466 0.4257475 0.17557009 -0.23771608 -0.04666063 -0.29991448
-0.2672012 -0.14849271 -0.192366 -0.00022681517 -0.1396556 -0.07043645 0.30376467 -0.2090181
-0.0821484 0.41900802 0.12090634 0.2512943 -0.31838614 -0.22997537 0.04915355 -0.31344524
0.028505035 0.36935148 0.16673043 0.052794617 0.28164837 0.03522113 0.2791647 -0.031079711
0.2724999 0.28470367 -0.11860887 0.32870516 -0.1238577 0.19817382 0.30538532 0.5489695
-0.0890747 0.3251191 -0.2942313 0.07488273 0.050821956 0.15804718 -0.23404108 -0.07654557
0.040242065 -0.11499304 -0.1774803 0.22275351 0.074042805 -0.06278457 0.34614685 0.09368826
00000000: f8b0 0bbe efdd b2bd c951 afbe 652e 9dbe
00000010: cb26 bcbd 4ca1 2f3e 5c11 f73d 473d 163e
00000020: af1f 16be 29a7 c13e 7cad 063f 94fb d93e
00000030: a5c8 333e d86b 73be 371f 3fbd 648e 99be
00000040: 98ce 88be 790e 18be 98fb 44be 3cd5 6db9
00000050: e101 0fbe fc40 90bd 0b87 9b3e d708 56be
00000060: 6c3d a8bd 3888 d63e be9d f73d a6a9 803e
00000070: 8203 a3be aa7e 6bbe 3c55 493d e57b a0be
00000080: 6483 e93c a31b bd3e 62bb 2a3e 2b3f 583d
00000090: 3734 903e 0844 103d adee 8e3e e19a febc
000000a0: 1b85 8b3e aec4 913e 35e9 f2bd 0b4c a83e
000000b0: 1ba9 fdbd 14ee 4a3e 775b 9c3e 4489 0c3f
000000c0: cc6c b6bd 0376 a63e 7ca5 96be 1e5c 993d
000000d0: af2a 503d 1fd7 213e 77a8 6fbe ecc3 9cbd
000000e0: ddd4 243d 7981 ebbd 65bd 35be 7f19 643e
000000f0: c1a3 973d 3295 80bd 293a b13e a1df bf3d

enc3.bias f4 [8]
-0.3631935 0.12920807 -0.15644439 -0.35907173 0.33752933 -0.23759992 -0.26803046 0.1259127
00000000: 80f4 b9be 1f4f 043e f532 20be 40d8 b7be
00000010: a5d0 ac3e 654d 73be 4a3b 89be 42ef 003e

enc4.weight f4 [8, 8]
-0.08403913 -0.04047578 -0.014879131 -0.007294446 0.08099134 0.5798826 -0.3263582 0.40598702
-0.16894236 -0.3884592 0.042477876 -0.27728772 0.43051118 0.5474217 0.01637723 0.03863576
-0.19763407 -0.27091533 0.17288207 0.08672883 0.50309616 0.3968724 -0.02190107 0.06825634
-0.0077816676 -0.3826441 -0.29047614 -0.39139435 -0.07701176 0.24399365 -0.3323506 0.2351051
-0.24558365 0.0030395582 0.018682918 0.12042138 -0.29125354 -0.26804432 0.114025235 0.12155877
0.112030715 0.0028922337 -0.072295874 -0.0066829026 -0.143046 -0.109371066 -0.19206175 -0.032620996
0.044039905 -0.4467238 0.30810496 -0.23381037 0.17166704 0.46831372 0.11815369 0.17837133
-0.28100222 0.33817065 -0.33626887 -0.19350424 0.42590585 -0.1913683 -0.008120292 0.07238128
00000000: b51c acbd eec9 25bd 99c7 73bc 4006 efbb
00000010: cade a53d 3073 143f 6c18 a7be 88dd cf3e
00000020: 3aff 2cbe 20e4 c6be 48fd 2d3d a8f8 8dbe
00000030: f66b dc3e d423 0c3f 8a29 863c 8840 1e3d
00000040: 9660 4abe 6ab5 8abe ff07 313e e39e b13d
00000050: e9ca 003f dc32 cb3e df69 b3bc fbc9 8b3d
00000060: 5cfd febb ede9 c3be 4ab9 94be d764 c8be
00000070: 57b8 9dbd 79d9 793e dc29 aabe 64bf 703e
00000080: 487a 7bbe 5333 473b eb0c 993c 7c9f f63d
00000090: 2f1f 95be 1b3d 89be 1086 e93d cef3 f83d
000000a0: 5c70 e53d a18b 3d3b dc0f 94bd 40fc dabb
000000b0: a77a 12be f0fd dfbd d6ab 44be 989d 05bd
000000c0: 3063 343d fbb8 e4be efbf 9d3e fc6b 6fbe
000000d0: 7cc9 2f3e d1c6 ef3e 90fa f13d f9a6 363e
000000e0: 86df 8fbe b424 ad3e 6f2b acbe fa25 46be
000000f0: 5510 da3e 0df6 43be f90a 05bc a33c 943d

enc4.bias f4 [8]
0.4366584 -0.09454929 -0.13623112 0.30030623 -0.22969764 0.5246939 0.09961507 0.2510676
00000000: b191 df3e 0fa3 c1bd 2c80 0bbe bdc1 993e
00000010: dc35 6bbe 5752 063f fc02 cc3d ef8b 803e

enc5.weight f4 [8, 8]
-0.38207495 0.16421495 0.15950516 0.06291577 -0.0084605785 -0.19086947 -0.18053423 0.5278544
-0.01517058 0.17509359 -0.24826393 0.34784138 -0.050898004 0.47540313 -0.32732266 0.6005351
0.0327687 0.47830766 0.28691912 0.3340208 0.24737118 -0.21161097 0.13014197 -0.33203605
0.2459336 0.521118 0.20831595 0.31317127 0.11830797 -0.1835968 -0.104205914 -0.18334943
-0.21669191 0.0014879213 -0.1947267 0.17627798 -0.16580763 0.4230159 0.09553283 0.51809233
0.48049 0.31884614 0.16229384 0.4493596 -0.16862358 -0.31927347 0.40756285 -0.0032787777
0.5263084 0.36926943 -0.040077053 0.37390777 -0.3233397 0.09046761 0.12234326 -0.32723337
-0.057212856 0.49132943 0.20634018 0.52764 0.033204433 -0.072441824 0.33495453 -0.4212156
00000000: 549f c3be f727 283e 5255 233e fcd9 803d
00000010: 3d9e 0abc 4973 43be f7dd 38be 7721 073f
00000020: 068e 78bc bc4b 333e e638 7ebe 4418 b23e
00000030: 6d7a 50bd 0a68 f33e d696 a7be abbc 193f
00000040: 7938 063d bee4 f43e 10e7 923e c604 ab3e
00000050: df4e 7d3e 8cb0 58be f043 053e a100 aabe
00000060: 05d6 7b3e fd67 053f c750 553e fc57 a03e
00000070: 734b f23d cd00 3cbe e969 d5bd f4bf 3bbe
00000080: 7ce4 5dbe 5b06 c33a 7066 47be 3782 343e
00000090: 7ac9 29be 8a95 d83e b7a6 c33d b3a1 043f
000000a0: c902 f63e cd3f a33e 5b30 263e 7612 e63e
000000b0: a9ab 2cbe d077 a3be 14ac d03e c3e0 56bb
000000c0: 26bc 063f e210 bd3e d627 24bd d770 bf3e
000000d0: c88c a5be 1547 b93d 1a8f fa3d 228b a7be
000000e0: 0758 6abd 888f fb3e d74a 533e 6a13 073f
000000f0: 5f01 083d 615c 94bd 297f ab3e 92a9 d7be

enc5.bias f4 [8]
-0.07143291 0.27204308 0.044267915 0.10134963 0.090224534 -0.092425145 0.023227522 0.004719234
00000000: 6b4b 92bd 3b49 8b3e 4652 353d 6590 cf3d
00000010: a4c7 b83d 6549 bdbd a547 be3c cea3 9a3b

feat.weight f4 [16, 8]
-0.085935205 -0.11194674 -0.29458606 0.022634149 -0.5596882 0.03418127 -0.39092207 -0.040056612
-0.3747009 -0.571724 0.25788674 0.04393926 -0.65625024 0.015130148 -0.03890151 0.50717443
-0.60752267 -0.17408603 -0.41910222 -0.32703233 -0.6603012 0.095968746 0.069337234 -0.37663373
0.01053574 0.50705713 -0.0096569 -0.4571913 0.3160417 -0.5754921 0.030392816 -0.43494484
0.3097193 0.17836575 0.28505722 -0.11952981 0.60346425 0.35066968 0.34194344 -0.03853514
-0.52686363 -0.24588536 0.24954748 0.26923028 0.004987948 0.22643416 0.2848668 0.31466216
-0.02904958 0.62492883 -0.24405283 0.10859842 0.14921394 -0.50502145 -0.2928017 -0.4748627
-0.25343078 -0.54362273 0.029534731 0.43789625 -0.58442146 0.19656034 0.22996248 0.16319099
0.3368135 -0.04910653 -0.44611287 -0.05834801 0.6089578 -0.24949832 -0.13999522 -0.14353126
0.3536225 0.5176845 0.089995325 0.03096677 0.22573853 -0.5325511 -0.2952291 -0.20538017
-0.043593563 0.45465654 0.39556432 0.45922166 0.20884274 0.18356055 0.5484481 0.02637902
0.4872595 0.31118274 -0.45016503 -0.50840896 0.5991012 0.0068672905 -0.53922796 -0.44356573
0.65167385 0.48589537 -0.35260996 0.0059378967 0.53893775 -0.52020043 -0.4104618 -0.28244737
0.048822936 0.37450683 0.24182226 0.329699 0.47095683 0.09405854 0.1921507 0.3153844
0.27436355 0.31881958 -0.31009072 -0.0812929 0.6067469 -0.3197789 -0.18055454 -0.0003753883
0.36618707 0.19385351 -0.50603473 -0.54078835 0.14969455 -0.43766502 -0.21934924 0.0442314
00000000: ccfe afbd 5544 e5bd fcd3 96be 406b b93c
00000010: ba47 0fbf a901 0c3d f026 c8be 6712 24bd
00000020: ccd8 bfbe 815c 12bf bb09 843e a7f9 333d
00000030: 0400 28bf 71e4 773c 3157 1fbd 2fd6 013f
00000040: 9b86 1bbf 9c43 32be 9194 d6be c870 a7be
00000050: 8009 29bf 438b c43d ae00 8e3d 23d6 c0be
00000060: 199e 2c3c 7fce 013f f937 1ebc fa14 eabe
00000070: 38d0 a13e 7353 13bf 5bfa f83c 17b1 debe
00000080: 8793 9e3e 83a5 363e 05f3 913e 0ccc f4bd
00000090: a27c 1a3f fa8a b33e 3613 af3e 06d7 1dbd
000000a0: 89e0 06bf 5fc9 7bbe 6089 7f3e 8dd8 893e
000000b0: f171 a33b 5bde 673e 10da 913e 661b a13e
000000c0: 63f9 edbc 56fb 1f3f fce8 79be d968 de3d
000000d0: 8acb 183e 1649 01bf 1bea 95be 3421 f3be
000000e0: aec1 81be dc2a 0bbf d2f2 f13c f033 e03e
000000f0: a59c 15bf 1d47 493e 497b 6b3e 8a1b 273e
00000100: d272 ac3e ee23 49bd e868 e4be 53fe 6ebd
00000110: a9e4 1b3f 7d7c 7fbe e85a 0fbe dcf9 12be
00000120: 020e b53e f986 043f 784f b83d 06ae fd3c
00000130: 0028 673e 4555 08bf 4528 97be 2e4f 52be
00000140: 2a8f 32bd bec8 e83e 6887 ca3e 1a1f eb3e
00000150: dfda 553e 4cf7 3b3e 1867 0c3f d118 d83c
00000160: 147a f93e 5853 9f3e 087c e6be 1727 02bf
00000170: b25e 193f 0207 e13b d80a 0abf 0c1b e3be
00000180: 19d4 263f 47c7 f83e 4b89 b4be b092 c23b
00000190: d3f7 093f db2b 05bf 0d28 d2be f19c 90be
000001a0: 8ffa 473d 5cbf bf3e 41a0 773e 4fce a83e
000001b0: 4121 f13e c4a1 c03d 27c3 443e 107a a13e
000001c0: 6179 8c3e 523c a33e 36c4 9ebe e47c a6bd
000001d0: c453 1b3f 0fba a3be 4ae3 38be c4cf c4b9
000001e0: df7c bb3e 8981 463e 7e8b 01bf 1b71 0abf
000001f0: 8749 193e a115 e0be 169d 60be fc2b 353d

feat.bias f4 [16]
-0.5441 -0.06582613 -0.32561177 -0.23240705 0.025047826 -0.29212517 -0.122272804 -0.23788281
-0.20758106 0.23071794 0.33759773 -0.22804685 0.29292443 0.051513266 -0.19339602 -0.20520699
00000000: 234a 0bbf dacf 86bd 96b6 a6be 1dfc 6dbe
00000010: 1931 cd3c 6e91 95be 2a6a fabd 8d97 73be
00000020: 2190 54be 5341 6c3e 9cd9 ac3e 1d85 69be
00000030: 31fa 953e 93ff 523d 9b09 46be c821 52be

dec1.weight f4 [8, 16]
-0.011507812 0.27511853 -0.119206086 -0.4359065 -0.0411554 0.06611078 -0.31620583 0.37945616
-0.22371316 -0.3617625 1.8718034e-05 -0.3352448 -0.4070467 0.13890177 -0.15279314 -0.13249803
-0.4661652 -0.51050425 -0.28781804 0.34124446 0.23500678 -0.32471964 0.20912819 -0.4170218
0.15507233 0.11673183 0.07524746 0.43681958 0.306505 0.22799574 0.4503565 0.45688596
-0.3387909 0.049456183 -0.02079255 -0.33227575 0.2760052 0.30572066 -0.13861932 0.33925816
-0.120842144 -0.4352079 0.36829996 -0.44471818 -0.090270504 0.42034334 -0.3602004 -0.27874863
-0.19461268 -0.32344633 -0.37637562 0.16390917 0.41785502 -0.37659132 0.22842173 -0.17325066
0.28632513 0.319742 0.27220312 0.12669884 0.44452634 0.4196547 0.2218727 -0.15024911
0.21922024 0.14326346 0.12898067 0.15938099 0.109175496 -0.109153785 -0.10483398 0.22572081
-0.15183397 -0.007135613 -0.06172957 0.011317028 0.029319635 0.0061185695 -0.018275449 0.049960215
-0.034133933 0.25397387 -0.20814867 -0.22693786 0.124506705 0.41365132 -0.36685127 0.36250976
-0.3201925 -0.21225712 0.3868736 -0.1223962 -0.3659091 0.17122297 -0.18487987 -0.3911865
0.18556654 0.12499814 -0.019640971 -0.050446257 0.09824643 -0.2204385 0.07688868 -0.21386068
-0.03908301 0.057293486 -0.09088621 -0.091663115 -0.25655493 -0.063231006 -0.22360417 0.19662173
0.24814916 0.1956519 0.14170106 -0.022052664 -0.27935368 -0.08237877 0.08208269 0.05224655
0.15117568 -0.02595172 0.16046941 0.038511366 0.14778434 -0.094221756 -0.10057224 -0.16888371
00000000: 438b 3cbc 56dc 8c3e 5222 f4bd 232f dfbe
00000010: 9192 28bd 1765 873d bbe5 a1be 1448 c23e
00000020: 1015 65be ef38 b9be ac04 9d37 35a5 abbe
00000030: 6d68 d0be 443c 0e3e ce75 1cbe 90ad 07be
00000040: 35ad eebe 68b0 02bf e35c 93be 98b7 ae3e
00000050: 9ea5 703e a741 a6be b325 563e e283 d5be
00000060: 48cb 1e3e 1911 ef3d 571b 9a3d d1a6 df3e
00000070: 39ee 9c3e b777 693e 2195 e63e f5ec e93e
00000080: 0076 adbe 9192 4a3d 2355 aabc 0c20 aabe
00000090: 8e50 8d3e 6b87 9c3e 39f2 0dbe 3fb3 ad3e
000000a0: 167c f7bd 92d3 debe d091 bc3e 1ab2 e3be
000000b0: bedf b8bd 3e37 d73e 306c b8be 24b8 8ebe
000000c0: 8c48 47be c29a a5be 4eb4 c0be ced7 273e
000000d0: 18f1 d53e 94d0 c0be 63e7 693e 9f68 31be
000000e0: 3599 923e 39b5 a33e 355e 8b3e 57bd 013e
000000f0: f598 e33e fbdc d63e 9932 633e e7da 19be
00000100: 457b 603e a8b3 123e 8213 043e c534 233e
00000110: 6797 df3d 058c dfbd 33b3 d6bd 5b23 673e
00000120: 5d7a 1bbe dcd1 e9bb 25d8 7cbd 0e6b 393c
00000130: bb2f f03c 487e c83b 65b6 95bc 15a3 4c3d
00000140: 06d0 0bbd dd08 823e ed24 55be 6662 68be
00000150: 5ffd fe3d 1bca d33e eed3 bbbe e19a b93e
00000160: 45f0 a3be ee59 59be 4c14 c63e dcaa fabd
00000170: 7058 bbbe 1355 2f3e 2651 3dbe 9949 c8be
00000180: 2805 3e3e 06ff ff3d 1ae6 a0bc bca0 4ebd
00000190: 6d35 c93d a1ba 61be d077 9d3d 4bfe 5abe
000001a0: 8215 20bd 93ac 6a3d 8d22 babd dfb9 bbbd
000001b0: 2b5b 83be 427f 81bd 7ef8 64be 3557 493e
000001c0: d01a 7e3e f958 483e 151a 113e caa7 b4bc
000001d0: 7207 8fbe 33b6 a8bd f81a a83d 7a00 563d
000001e0: cccd 1a3e b498 d4bc 1852 243e 18be 1d3d
000001f0: c754 173e 56f7 c0bd d2f8 cdbd daef 2cbe

dec1.bias f4 [8]
0.2680986 0.18072003 -0.23213874 0.19212377 -0.031571753 -0.12699887 0.01669286 -0.27922392
00000000: 3844 893e ac0e 393e c7b5 6dbe 18bc 443e
00000010: 6251 01bd fe0b 02be 77bf 883c 70f6 8ebe

dec2.weight f4 [8, 8]
-0.20280689 -0.05494284 -0.16568546 -0.17602684 -0.2567337 -0.32948238 0.0028437017 -0.030524615
0.16101056 0.6557805 0.11112541 0.2650304 -0.074811906 0.36466134 -0.2733942 -0.09728966
0.5275942 -0.17608985 0.5469272 -0.2285369 -0.09129155 0.5149029 -0.11059149 0.09688148
0.060273632 0.20856604 0.13256067 0.48660836 0.08656852 -0.18308368 0.19984555 -0.016691135
-0.12285594 -0.2933673 -0.31176612 -0.1596158 0.008761704 0.22594684 -0.29241216 -0.2262613
0.5124207 0.041331057 0.50446296 -0.2830984 0.35627893 0.50469536 -0.16133022 0.33000612
0.021618396 -0.033159517 0.3223957 -0.33909172 0.22612472 0.5103186 0.0821956 -0.023803748
-0.09758761 -0.27376577 -0.19721435 0.16937754 -0.15983045 0.28159928 0.21757326 0.12476353
00000000: 9cac 4fbe be0b 61bd 73a9 29be 6140 34be
00000010: 9972 83be eab1 a8be 665d 3a3b c20e fabc
00000020: f4df 243e 3be1 273f b895 e33d 11b2 873e
00000030: fc36 99bd e4b4 ba3e 53fa 8bbe cd3f c7bd
00000040: 6a10 073f e650 34be 6c03 0c3f 9405 6abe
00000050: 10f7 babd add0 033f cb7d e2bd cc69 c63d
00000060: 7ce1 763d 5692 553e fcbd 073e bb24 f93e
00000070: d64a b13d 4a7a 3bbe 50a4 4c3e d9bb 88bc
00000080: e59b fbbd 3d34 96be cf9f 9fbe 5372 23be
00000090: 408d 0f3c 9c5e 673e 0cb7 95be 0bb1 67be
000000a0: 012e 033f c14a 293d 7c24 013f 46f2 90be
000000b0: 316a b63e b733 013f c033 25be 90f6 a83e
000000c0: 1019 b13c 46d2 07bd 0d11 a53e 6e9d adbe
000000d0: 3d8d 673e 3da4 023f 2b56 a83d 1400 c3bc
000000e0: 03dc c7bd 072b 8cbe 8ff2 49be 4e71 2d3e
000000f0: 98aa 23be c82d 903e 86cb 5e3e 0684 ff3d

dec2.bias f4 [8]
0.27464592 0.21022426 -0.24241805 0.1549286 -0.16860783 0.31223464 0.06104846 -0.16011256
00000000: 649e 8c3e 0745 573e 703c 78be 9aa5 1e3e
00000010: 88a7 2cbe 38dd 9f3e f30d 7a3d 8cf4 23be

dec3.weight f4 [8, 8]
-0.23827246 0.13632804 0.14950302 0.26740676 0.28914183 -0.18222046 -0.052916404 0.47118956
0.175822 0.5295841 0.048498165 0.5325841 -0.3385537 0.24927358 0.19959329 -0.29944956
-0.043679938 0.17281653 0.5119867 0.11878909 0.035354 0.45783815 0.29137477 -0.29598978
0.05943117 0.16027907 0.36879262 -0.32199097 0.3298383 0.5101227 0.27050412 -0.060691386
-0.017050669 0.312183 0.33272257 -0.44366238 -0.00097099843 0.24186471 0.42372543 -0.19437942
-0.26806575 -0.09030605 -0.28987604 -0.050514936 0.29893914 0.21321529 -0.11148225 -0.21586047
0.0909027 0.31979623 0.01202719 0.5382614 -0.24503338 -0.010657335 0.119197674 0.08473378
-0.17607039 -0.27638415 -0.0033065975 -0.1916144 -0.12903114 -0.25540775 0.27306536 -0.2551847
00000000: b2fd 73be 9499 0b3e 5217 193e 8ae9 883e
00000010: 660a 943e 0098 3abe dfbe 58bd c23f f13e
00000020: af0a 343e d392 073f 03a6 463d 6e57 083f
00000030: e956 adbe 9341 7f3e 2f62 4c3e 7451 99be
00000040: bce9 32bd d1f6 303e 8f11 033f b247 f33d
00000050: 5bcf 103d c369 ea3e 132f 953e f98b 97be
00000060: 196e 733d 3220 243e 63d2 bc3e 00dc a4be
00000070: 91e0 a83e 6797 023f 847f 8a3e 8897 78bd
00000080: d8ad 8bbc 73d6 9f3e 9d5a aa3e b727 e3be
00000090: 9a8a 7eba 62ab 773e 8af2 d83e 660b 47be
000000a0: ea3f 89be 61f2 b8bd a26a 94be c0e8 4ebd
000000b0: 8d0e 993e 1c55 5a3e ce50 e4bd 870a 5dbe
000000c0: 322b ba3d 55bc a33e b10d 453c 80cb 093f
000000d0: 08ea 7abe 1a9c 2ebc e91d f43d e788 ad3d
000000e0: cc4b 34be 3982 8dbe 80b3 58bb 9136 44be
000000f0: bd20 04be cec4 82be 39cf 8b3e 92a7 82be

dec3.bias f4 [8]
0.09862572 0.3924001 0.3903886 -0.30384186 -0.095188394 -0.13612941 -0.014135551 0.031410992
00000000: 48fc c93d aae8 c83e 04e1 c73e 2991 9bbe
00000010: 22f2 c2bd 8265 0bbe cc98 67bc d0a8 003d

dec4.weight f4 [8, 8]
-0.032635424 0.36255696 0.042296465 -0.26409099 -0.03788918 0.055526007 0.3818914 0.12762398
-0.3110813 0.1448705 -0.26760826 -0.29357475 -0.19245255 0.30382177 -0.21750106 -0.12239449
0.2285489 0.27427664 0.50737125 -0.0057414393 0.061674446 0.06245011 0.17997895 0.2096326
-0.26957428 -0.111962624 -0.30405697 0.20057583 0.1625696 0.13200012 -0.09506781 0.30208692
0.5661148 0.30918425 0.058977146 -0.11704572 -0.09362556 0.04072061 0.058987096 0.33588144
-0.5314069 0.5057531 0.34048873 0.42431694 0.27545825 0.071071446 0.2887252 0.09107077
0.31439114 0.40957424 0.04110313 -0.1584584 -0.21502937 -0.10907534 0.47058347 -0.22616315
0.04657722 0.28589553 -0.20435773 -0.18915397 0.29724565 -0.05383973 0.005918623 -0.34549773
00000000: b9ac 05bd 11a1 b93e 0f3f 2d3d ef36 87be
00000010: af31 1bbd 3d6f 633d 4587 c33e dcaf 023e
00000020: 0c46 9fbe ef58 143e f303 89be 6e4f 96be
00000030: 4812 45be 878e 9b3e 99b8 5ebe f6a9 fabd
00000040: b908 6a3e fd6d 8c3e 15e3 013f af22 bcbb
00000050: 589e 7c3d b0cb 7f3d 674c 383e eea9 563e
00000060: a405 8abe a94c e5bd 5bad 9bbe c063 4d3e
00000070: a578 263e 0a2b 073e e9b2 c2bd 23ab 9a3e
00000080: e6ec 103f 664d 9e3e 0592 713d abb5 efbd
00000090: c2be bfbd a8ca 263d 749c 713d a7f8 ab3e
000000a0: 480a 08bf 0979 013f 8a54 ae3e 1240 d93e
000000b0: dd08 8d3e e88d 913d cad3 933e 5083 ba3d
000000c0: e0f7 a03e b7b3 d13e c15b 283d eb42 22be
000000d0: a930 5cbe e462 dfbd 51f0 f03e 5097 67be
000000e0: c1c7 3e3d e660 923e 2743 51be 94b1 41be
000000f0: 9530 983e 0c87 5cbd 02f1 c13b 14e5 b0be

dec4.bias f4 [8]
0.6041575 -0.0514256 -0.18123214 -0.14531943 0.07767714 -0.19760984 0.29771075 -0.0648812
00000000: 11aa 1a3f a6a3 52bd eb94 39be 9ece 14be
00000010: 3115 9f3d 3c5a 4abe 8b6d 983e 6fe0 84bd

dec5.weight f4 [8, 8]
0.6989015 -0.10589824 0.09488806 0.17322734 0.5035458 0.07371122 0.6688541 0.5458669
-0.29069555 -0.33944708 0.06563379 -0.08448815 -0.22569552 -0.16549052 0.30942193 0.21426627
-0.19061783 -0.20935768 -0.051177368 -0.23206078 0.33334923 -0.08131929 -0.21835285 -0.097583234
0.25934216 -0.14126727 -0.11998835 -0.35070857 0.028062986 0.1910706 0.39073372 0.015619413
-0.12662026 0.24985754 0.18421839 -0.013213948 -0.11418014 0.44516662 -0.13815863 -0.5129717
0.34537867 -0.22116621 0.11706813 -0.20634381 0.51882565 0.07594661 0.5193614 0.18909785
0.43405744 0.2652534 0.5032324 0.24174336 0.44091314 -0.09372904 0.61459136 0.029453263
-0.23402628 -0.17899272 0.32297426 -0.061471194 -0.21795033 0.50254935 -0.44932103 -0.41832468
00000000: 35eb 323f 2de1 d8bd ac54 c23d 8262 313e
00000010: 61e8 003f e8f5 963d 063a 2b3f efbd 0b3f
00000020: 0cd6 94be 02cc adbe 026b 863d 2008 adbd
00000030: ba1c 67be 5976 29be 8d6c 9e3e 9e68 5b3e
00000040: 5231 43be dc61 56be 5c9f 51bd 57a1 6dbe
00000050: c0ac aa3e ba8a a6bd e497 5fbe b8d9 c7bd
00000060: 7fc8 843e 5ea8 10be 74bc f5bd 1390 b3be
00000070: 59e4 e53c 03a8 433e 400e c83e 91e8 7f3c
00000080: bea8 01be a8da 7f3e bfa3 3c3e 517f 58bc
00000090: 47d7 e9bd e1ec e33e 7579 0dbe 1d52 03bf
000000a0: 79d5 b03e 6579 62be 6ac1 ef3d cb4b 53be
000000b0: c2d1 043f e589 9b3d def4 043f dea2 413e
000000c0: c73c de3e 4bcf 873e d7d3 003f 928b 773e
000000d0: 5ebf e13e 03f5 bfbd dc55 1d3f f847 f13c
000000e0: 96a4 6fbe de49 37be e25c a53e 38c9 7bbd
000000f0: 5f2e 5fbe 13a7 003f 680d e6be a72e d6be

dec5.bias f4 [8]
0.12528972 -0.20857406 0.0674418 0.40077463 0.15127838 0.27946645 0.5886441 0.20899203
00000000: f34b 003e 7094 55be ed1e 8a3d 5532 cd3e
00000010: b8e8 1a3e 3a16 8f3e 61b1 163f 0202 563e

head.weight f4 [6, 8]
-0.24835356 -0.14404348 0.06279293 -0.025152955 0.08124055 0.20120524 -0.26190615 0.04858328
-0.34861547 -0.07182334 0.28809527 -0.23371714 0.14330268 -0.5166065 -0.39808106 0.547239
-0.043821186 0.16832963 0.19763394 -0.23879501 0.19321921 -0.057594165 0.20364445 -0.1521264
0.22521934 -0.036756616 0.29185554 -0.16166097 -0.19309324 -0.21375793 -0.011799551 0.19111225
0.2623518 -0.0077106627 -0.0434811 0.011944467 0.07324907 -0.20352235 -0.13867809 -0.027624952
0.042548098 0.117908575 0.26789558 -0.005570469 -0.09705494 0.04784996 -0.088459745 0.08632287
00000000: 6550 7ebe 2280 13be 9499 803d 920d cebc
00000010: 7261 a63d bf08 4e3e 9018 86be 43ff 463d
00000020: ba7d b2be 1e18 93bd 3981 933e 8c53 6fbe
00000030: f0bd 123e 5340 04bf 48d1 cbbe db17 0c3f
00000040: d87d 33bd 9a5e 2c3e 8d60 4a3e ae86 74be
00000050: 42db 453e dce7 6bbd 2c88 503e 06c7 1bbe
00000060: e69f 663e 1b8e 16bd 176e 953e 748a 25be
00000070: 3cba 45be 5ce3 5abe e752 41bc eeb2 433e
00000080: fa52 863e baa9 fcbb 3d19 32bd bab2 433c
00000090: 9c03 963d 2a68 50be a101 0ebe b94d e2bc
000000a0: ea46 2e3d 0d7a f13d 9c29 893e 7b88 b6bb
000000b0: bec4 c6bd 52fe 433d 622a b5bd 0bca b03d

head.bias f4 [6]
0.30506453 -0.1987898 -0.09138482 0.17688338 -0.10939838 0.44465995
00000000: 6b31 9c3e 8e8f 4bbe f727 bbbd eb20 353e
00000010: 420c e0bd 78aa e33e
