python/dqn/itm.model (torch_old, 3065 bytes, 10 tensors)

enc1.weight f4 [8, 6]
000000 ad 48 22 40 7a 2e fb 3e 40 3d dc ba b8 a1 60 3d
       2.5356858 0.49058896 -0.0016802922 0.054841727
000010 1e 35 bf 3e bc 1f 65 bd 4a c7 56 40 97 a7 88 3d
       0.37345213 -0.055938467 3.3559136 0.0667259
000020 05 ec c3 3e 30 59 ae 3c 7e aa a5 be f0 cf 14 bb
       0.38266006 0.021282762 -0.32356638 -0.0022706948
000030 f0 87 77 be 28 af 79 3c 15 05 aa bc 5c 0b e9 bd
       -0.2417295 0.015239514 -0.020754376 -0.1137912
000040 b0 4d d5 bd 8e 72 07 be a0 d7 42 40 8b 9b 1e 3f
       -0.10415208 -0.13227293 3.0444107 0.6195609
000050 79 7e c7 3e 90 7e 8f 3c e0 2e 80 be 30 06 e9 ba
       0.38963678 0.017516404 -0.25035763 -0.0017778333
000060 e6 40 a7 be bd 53 18 be 02 66 5d 3e 4c cc e6 bd
       -0.326667 -0.14875694 0.21620944 -0.11269435
000070 04 9f af be 85 bb 39 be 6d 97 3a 40 fc 6b 58 3e
       -0.34301007 -0.1813794 2.9154923 0.21134943
000080 e2 ff f8 bc 14 44 86 3d 90 0d 21 3e e1 85 8f 3c
       -0.030395452 0.065559536 0.1572783 0.017519893
000090 62 09 18 be b6 67 9b 3d be 2c 0d bf 8c d3 9c 3e
       -0.1484733 0.07588141 -0.55146396 0.30630147
0000a0 c8 12 03 3e a4 00 1f 3d e0 6e aa bd ff e1 02 be
       0.12800133 0.03881897 -0.08321929 -0.12781523
0000b0 1c 8a 93 bd 90 7f 65 3d 1c 7c 63 3e 12 d5 5d 3e
       -0.07204077 0.056029856 0.22215313 0.21663311

enc1.bias f4 [8]
000000 a4 11 f3 bd 8a 6c f7 3e c6 32 a7 be 7c c9 f2 3e
       -0.11868599 0.48324996 -0.32655925 0.47419345
000010 9b 23 aa be 4c 85 31 bf cc ba 88 bd 92 19 1e bf
       -0.3323029 -0.6934402 -0.06676254 -0.6175777

enc2.weight f4 [8, 8]
000000 6e bc 4a 3e e1 d2 5b 3f e7 07 49 3e 5a 37 fd 3e
       0.19798443 0.8586865 0.19631921 0.49456292
000010 10 41 03 be b0 19 49 3e b9 96 d7 3e 97 72 9c be
       -0.12817788 0.19638705 0.4210718 -0.30556175
000020 3b 5e d1 3e 09 f9 34 3f fc 31 6c be 57 e7 15 3f
       0.40892205 0.706925 -0.23065943 0.5855612
000030 d0 6f 0d be 9d 0d 0a 3f f9 d0 ef 3d b7 d3 24 be
       -0.13812184 0.5392702 0.1170978 -0.16096388
000040 10 34 94 bc 4c b6 1a bf ff 1f b4 be c6 72 b4 bb
       -0.018091232 -0.6043441 -0.3518066 -0.005506846
000050 80 7f f0 3a c3 ef f0 be de f9 26 bf c0 de f6 ba
       0.0018348545 -0.47057924 -0.6522502 -0.0018834695
000060 be dc 87 bd 6f fd 7d be 06 1f 18 3e 6c 85 1b 3d
       -0.066339 -0.24803708 0.14855585 0.037969038
000070 ee 85 2d be ed 30 5f be e4 b9 ae 3e e8 66 47 be
       -0.16945621 -0.21796007 0.34126198 -0.1947285
000080 bd c7 89 3c 6d a1 3c bd af 6e 78 be 1b 7d 0e bf
       0.016818875 -0.046052385 -0.24260972 -0.55659646
000090 09 4e d9 bd 21 27 a6 bd 44 5a 70 be c8 7f 53 3e
       -0.10610587 -0.08112932 -0.23471934 0.20654213
0000a0 94 2c 87 be 3a be 2d be ec fa 3c bd 06 c9 24 3e
       -0.26401198 -0.16967097 -0.046137735 0.1609231
0000b0 58 59 a7 3d 35 10 ca 3d dc d4 92 bd 61 68 d6 be
       0.08171338 0.098663725 -0.07169506 -0.4187651
0000c0 3b 62 22 be 47 f1 8d 3e b4 e9 94 be 48 22 e9 3e
       -0.15857784 0.27723143 -0.2908455 0.45533967
0000d0 f6 59 0b bf 37 a2 a9 be 02 52 1c 3d e5 2f 5b be
       -0.54434144 -0.33131573 0.038164146 -0.21404989
0000e0 16 c1 b2 3e 90 b9 18 3f 80 a2 dc bd 04 54 38 3f
       0.34912938 0.59658146 -0.10773182 0.720032
0000f0 3f 28 f1 3d ff 71 0e 3f d8 22 aa bc 63 83 b2 3d
       0.117752545 0.55642694 -0.020768568 0.08716466

enc2.bias f4 [8]
000000 45 44 c1 3e 95 22 e3 3e 40 b7 1a 3d fb 0d ec 3e
       0.37747398 0.44362321 0.037772417 0.46104416
000010 9d fb 6d 3e 69 94 db be dc 79 da bc b4 1b 98 3c
       0.23240514 -0.42886665 -0.026669435 0.018567897

enc3.weight f4 [8, 8]
000000 17 e2 a0 3e 39 34 fd 3e 3c 96 ab bd 6d d7 f4 3d
       0.31422493 0.49453905 -0.08378264 0.11955152
000010 73 ff 95 bd 78 6d dd bd 08 f6 3b be f7 d9 00 3f
       -0.07324114 -0.10811895 -0.18355572 0.5033259
000020 ea 06 fb 3e 93 c4 02 3f 37 73 91 be b4 ac a3 3c
       0.49028713 0.510812 -0.28408214 0.019979812
000030 8a c3 89 3e 33 f1 7b be a8 4a 4e 3e 87 e0 09 3f
       0.26906997 -0.24603729 0.20145667 0.53858227
000040 15 53 4a be 92 23 03 bd c7 e9 65 3d 88 74 cd bd
       -0.19758256 -0.032016344 0.05613115 -0.10031992
000050 1d 4f 7b 3e f8 25 42 3d 08 42 21 3e 31 e5 5c be
       0.24541898 0.04739949 0.15747845 -0.21571805
000060 24 56 77 be f7 b4 48 be 4c 40 ea bc c2 9b ce be
       -0.24153954 -0.19600283 -0.028595112 -0.4035321
000070 f2 27 9a 3e 30 7b f7 3c d8 db 2f bd 43 97 ad 3d
       0.301086 0.030210108 -0.04293427 0.084761165
000080 87 e8 b7 3d 86 fb 2d be 9e c2 df be 1a 6b 95 be
       0.08979898 -0.1699048 -0.4370317 -0.29183275
000090 92 54 18 be 53 b7 21 be 42 35 28 3d 28 9f 0e bd
       -0.14876011 -0.15792589 0.041066416 -0.034819752
0000a0 8e bd d1 3e 9b c8 a9 3e ae 1f e8 bd 46 cf a3 3e
       0.4096493 0.33160862 -0.113341674 0.31994075
0000b0 6b 94 ec bd 90 37 49 3b ac a3 ad 3e a4 be 5b 3e
       -0.11551746 0.0030703284 0.33913934 0.21459442
0000c0 39 85 8d bd 7f 12 3c bc c8 e2 64 3d fe 69 fe 3d
       -0.06910176 -0.011479019 0.055880338 0.1242256
0000d0 f8 73 13 3e 14 1c a3 3e 1b 64 c9 bb 2b 0f c8 be
       0.14399707 0.3185736 -0.0061459667 -0.39074072
0000e0 ce 68 2a 3d 74 22 00 bd 54 ff 01 3f 1b 94 75 be
       0.041603856 -0.031282857 0.50780225 -0.23982279
0000f0 ae d6 f7 3d 77 b8 db 3e 57 d3 4d 3e 7f 84 f9 be
       0.12101494 0.42914173 0.20100151 -0.487339

enc3.bias f4 [8]
000000 47 5a a8 3e d5 6e f2 3e 2a 6d 30 3d 46 4d 0f be
       0.32881376 0.47350183 0.043072857 -0.13994321
000010 84 3d 8c bc ac a5 9c 3e f2 ca 37 3d 96 05 f9 3d
       -0.017119177 0.30595148 0.044871278 0.121592686

feat.weight f4 [16, 8]
000000 64 3b 0b bf aa 15 29 bf 68 82 06 3e b2 e1 cf be
       -0.543875 -0.6604868 0.13135684 -0.4060188
000010 ce 83 4a be d9 6d 09 3d 16 40 a4 be 5a cc 28 3e
       -0.19776842 0.033552025 -0.32080144 0.16484204
000020 0c 2e 4b be c5 a9 a5 be b8 08 87 3d ae 4b 24 3e
       -0.19841784 -0.32356086 0.0659346 0.16044495
000030 cc 94 71 3e ac 3a ac 3e 2b 86 a7 bd 7b 12 bb 3e
       0.23591918 0.33638513 -0.081798874 0.36537537
000040 d8 53 11 3f 64 df 05 3f 42 04 c0 3d f3 37 c1 bd
       0.5676856 0.5229399 0.09375812 -0.094344996
000050 9a 1a 5f 3e 31 d4 11 3e 50 cf a6 be 62 db 15 bf
       0.21787491 0.14241101 -0.32580042 -0.58537877
000060 d0 81 c7 be 4b 4e ae be 74 d4 2f bd 35 bb 87 3e
       -0.38966227 -0.34044108 -0.04292722 0.26510015
000070 20 b7 95 3e 21 dc 3e be 90 c9 40 3e fe 38 a7 3e
       0.29241276 -0.1863866 0.1882689 0.3266067
000080 ab d5 13 3f d8 f7 0e 3f 97 e7 81 3e 73 b0 b3 3e
       0.57747906 0.5584693 0.25372002 0.35095558
000090 2e dd 64 3e 38 5f a2 3e a2 f7 b2 be 96 0c 54 be
       0.22349998 0.3171327 -0.34954554 -0.20707926
0000a0 b5 5d 0c 3e 92 a9 2d 3f de 32 a7 bd 6f e4 f2 3e
       0.13707621 0.6783687 -0.08163999 0.47439906
0000b0 c6 4e 74 be 8d a8 54 3e 02 f6 9b bd 75 b8 96 bd
       -0.23858175 0.20767422 -0.07615282 -0.07359401
0000c0 96 54 86 3e ad ff 10 3f 86 a3 d2 bd b6 5b a7 3d
       0.2623641 0.5664013 -0.10285096 0.08171789
0000d0 04 00 a6 3d c5 22 9e 3e 9b b4 99 bd c9 db 37 be
       0.08105472 0.30885902 -0.07505151 -0.17954935
0000e0 c9 52 1b 3f 77 9f b2 3e 23 6f 83 3d 4a d5 f2 bd
       0.60673195 0.34887287 0.06417682 -0.11857088
0000f0 ad 22 90 bd 67 48 6c 3e 3c 9e c8 3c 0f 74 d4 3d
       -0.07037864 0.23074494 0.024489515 0.10373699
000100 de 57 09 be 4a 27 04 bf de c6 31 3c 12 90 9b be
       -0.13412425 -0.5162245 0.010850636 -0.30383354
000110 2c 27 91 be aa 5d 62 be 00 e5 2a 3e e2 8d b2 3e
       -0.28350198 -0.22106043 0.16688919 0.34873873
000120 96 55 1e bf 33 9b c9 be 0e 6c b4 3d 96 7a 92 be
       -0.61849344 -0.3937622 0.08809672 -0.2860915
000130 30 0f 63 3e 7c 25 37 bd 12 df e2 3d 59 e5 85 be
       0.22173762 -0.044713482 0.110777035 -0.2615154
000140 c0 3e 14 bf 48 2a 02 bf 4e a5 9e 3e fa 0d 9e 3d
       -0.5790825 -0.50845766 0.30985492 0.077175096
000150 c8 90 b4 be b0 0b 52 be ce 08 e2 bd 87 59 1f be
       -0.3526671 -0.20512271 -0.110368356 -0.15561496
000160 30 b4 c7 be 94 3c cf be 3a 13 00 3e c9 1d 06 3e
       -0.3900466 -0.40475905 0.12507334 0.130973
000170 b6 4e 6f 3e 0f 0b 36 be 9e 46 92 bd 09 b7 46 3e
       0.2336987 -0.17777656 -0.071423754 0.1940576
000180 55 9f ae be cf 45 c4 be 14 e0 99 3e d8 32 a9 3e
       -0.34105936 -0.3833451 0.3005377 0.33046603
000190 30 3d 68 be af b0 81 bd 12 ed 2a 3c 2d f2 90 be
       -0.22679591 -0.06332528 0.0104324985 -0.28309765
0001a0 97 63 d1 3e 02 1f df 3e 96 0d ec bd 30 90 6d be
       0.40896294 0.43578345 -0.11526029 -0.23199534
0001b0 5e 97 26 bd 24 0b b6 3e bb 00 9d be 21 ff cd 3e
       -0.0406717 0.35555375 -0.3066462 0.4023371
0001c0 4d 3e f4 be fa 77 d7 be ba dc 3e bd 43 08 e2 3d
       -0.47703782 -0.42083722 -0.04659722 0.11036732
0001d0 2e 29 87 be 4e 54 a0 bd c1 78 e5 3c 26 f1 a8 3e
       -0.26398605 -0.0782858 0.028011682 0.32996482
0001e0 f0 3e 33 bf cb 45 59 bf 20 aa 8f bd 4c 9e 7e 3e
       -0.7001791 -0.8487212 -0.07014871 0.24865073
0001f0 2e e8 64 3e 95 36 04 bf 0d d4 92 3e 17 ea 2c 3e
       0.22354195 -0.51645786 0.28677407 0.16886173

feat.bias f4 [16]
000000 81 00 95 be be dc 7c 3e 95 7b a7 3e 19 67 ad be
       -0.29101947 0.24693581 0.32711473 -0.3386772
000010 a8 7f 48 3d b3 27 96 3e 89 76 40 be 63 e3 7f be
       0.048949867 0.29327163 -0.18795218 -0.24989085
000020 d0 d3 4a be d5 b0 88 3e a5 2a 8a 3e 4e 3d 18 3e
       -0.19807363 0.26697412 0.2698566 0.14867136
000030 de ac 67 3e 36 09 35 3e 9a f0 2d 3e 23 f2 93 3e
       0.22624537 0.17679295 0.16986313 0.28895673

head.weight f4 [3, 16]
000000 44 94 20 3f e6 c5 be 3e 29 cd dc be 0d 66 50 3e
       0.62726235 0.3726036 -0.43125275 0.2035143
000010 7a 72 d7 be ea cd 98 be b7 1f b7 be 2b d0 fb be
       -0.42079526 -0.298446 -0.35766384 -0.49182257
000020 bc 82 d2 3e 97 8c b6 3e d4 a6 fa 3e 28 e6 07 3f
       0.41115367 0.35654137 0.48955405 0.53085566
000030 9e fc 96 3e 06 d2 16 bf 5a 7c c8 3e 29 50 28 3f
       0.29489607 -0.5891422 0.39157373 0.65747315
000040 4f ae 56 3e e9 20 b1 3e 6c 5a d8 3d de c8 19 be
       0.20964931 0.3459542 0.105641216 -0.15018031
000050 40 c1 76 3d dd 3e 02 3e ba a5 8f 3d bc 80 e4 bd
       0.06024289 0.12719293 0.07014032 -0.11157367
000060 42 11 da 3c 01 3b 3a bd 88 6f 54 bd 58 f4 2d 3e
       0.026619557 -0.045466427 -0.051864177 0.16987741
000070 81 16 65 bd b8 0f 89 be 87 8b 98 3c b4 58 6e bb
       -0.055929665 -0.26769805 0.01862122 -0.003636879
000080 4b 39 d2 be 50 04 c7 3d 5f cb 1b 3f fa 2e e3 be
       -0.41059336 0.097176194 0.60857195 -0.44371778
000090 2e 5e 16 3f d8 de c9 3e bc 67 c9 3e f2 57 89 3e
       0.58737457 0.3942783 0.39336956 0.2682491
0000a0 55 38 ac be e7 70 cd be b6 d3 a3 be c5 14 60 be
       -0.33636728 -0.401252 -0.3199746 -0.21882923
0000b0 1b 7c 90 be 07 93 6b 3e e8 dc df be 9a 45 1d bf
       -0.28219685 0.23005305 -0.43723226 -0.6143433

head.bias f4 [3]
000000 4f 73 58 be 5c c5 62 3d 03 28 83 be
       -0.21137737 0.055363998 -0.25616464
