python/dqn/trained.model (torch_old, 1897 bytes, 10 tensors)

enc1.weight f4 [4, 6]
000000 71 b8 8a 41 36 2c c0 41 8a 60 42 41 45 fc ae be
       17.34006 24.021587 12.148569 -0.3417684
000010 34 f2 47 3e a7 71 82 c0 24 a2 ae be 9c 84 b3 3d
       0.19525987 -4.0763736 -0.34108078 0.087655276
000020 4c 28 e1 3d 8b 67 c1 be 98 06 b6 3e 8c be e0 3d
       0.10994014 -0.3777431 0.35551906 0.10973844
000030 c8 51 70 41 fe b1 b0 41 4c 9c 7d 41 86 30 d0 3e
       15.019966 22.08691 15.850658 0.4066202
000040 ec 26 77 3e b4 09 2b c0 8c 42 a2 bd 66 37 fd be
       0.24135941 -2.6724672 -0.07922849 -0.49456328
000050 34 57 a0 3d e0 f3 0c 3e 2c 0c bb 3e 5c 28 a8 3c
       0.07829133 0.13764906 0.36532724 0.020527057

enc1.bias f4 [4]
000000 db b0 fe 41 41 86 ed bd 18 f1 f5 41 09 df b7 bd
       31.836355 -0.115978725 30.742722 -0.089780875

enc2.weight f4 [4, 4]
000000 c4 d5 2b be c4 e7 d2 3e 44 20 6e be e4 bd 4a 3e
       -0.16780764 0.41192448 -0.23254496 0.19799
000010 5c 5a ba 41 94 c8 81 3b 92 51 b5 41 c2 f2 3a bb
       23.29412 0.0039606784 22.66483 -0.0028526043
000020 c4 56 bc 41 a9 df 8b bc 29 11 b5 41 26 f1 50 be
       23.542366 -0.017074423 22.633379 -0.20404491
000030 1c d6 ca be 18 bb 8b 3e 5a 15 81 3e 14 24 6b 3e
       -0.39616477 0.2729118 0.25211602 0.22962981

enc2.bias f4 [4]
000000 d4 a8 f9 be 29 6a f5 41 c5 48 f7 41 82 ec da be
       -0.48761618 30.676836 30.910532 -0.42758566

enc3.weight f4 [4, 4]
000000 bc fc 28 3e 38 05 8d 3d 60 31 21 be b8 70 f9 bd
       0.1650266 0.06885761 -0.15741491 -0.121797025
000010 bc e0 85 3e 94 83 b9 3e 04 22 bf 3e 84 0b 99 3e
       0.2614802 0.362332 0.3733064 0.29891598
000020 b0 9e d2 bd 78 c9 d6 be b8 7e 8f 3e 8e 88 a1 3e
       -0.102841735 -0.41950583 0.28026366 0.31549495
000030 38 8c bd bd 70 36 d3 3d 50 cc 0d 3e aa 22 ed 3e
       -0.0925526 0.103131175 0.1384747 0.4631551

enc3.bias f4 [4]
000000 e4 c0 00 be b0 50 04 be 38 f3 91 3d 98 2c e0 3d
       -0.12573582 -0.12921405 0.071264684 0.109460056

feat.weight f4 [4, 4]
000000 3a e9 b5 3e e8 2d c0 41 66 40 c4 41 a8 0b f0 be
       0.355295 24.022415 24.531445 -0.46883893
000010 c0 1f 1f 3e b3 b0 be 41 1a 96 be 41 9a 12 cc 3e
       0.15539455 23.836279 23.823292 0.39857942
000020 88 eb ca be 91 39 bd c1 b4 d5 bf c1 e0 64 ea 3e
       -0.3963282 -23.653109 -23.979347 0.45780087
000030 ba d5 bf be 24 a8 c0 c1 57 0d be c1 76 62 c6 be
       -0.37467748 -24.0821 -23.756514 -0.38746995

feat.bias f4 [4]
000000 a3 e1 e7 41 f2 eb e4 41 3c 8e e6 c1 4a 89 e6 c1
       28.985174 28.615208 -28.81945 -28.817036

head.weight f4 [3, 4]
000000 a5 36 a2 c1 c1 87 9d c1 06 5b a5 41 89 d9 9d 41
       -20.276682 -19.691286 20.669445 19.731218
000010 41 bc 9e c1 dd 4c 9e c1 df 13 9c 41 0b a2 a3 41
       -19.84192 -19.78753 19.509703 20.454123
000020 fd f8 9e c1 53 ad a1 c1 71 fe 9e 41 c4 66 a4 41
       -19.871576 -20.209631 19.874239 20.550179

head.bias f4 [3]
000000 40 64 4e c0 dc f0 ab c1 d4 76 05 c2
       -3.2248688 -21.492607 -33.366043
